model_files/alexnet_1d_ptbxl.pth (torch, 157025 bytes, 32 tensors)

feature.0.weight f4 [16, 8, 11]
0	0xbd85d1bc	-0.06534144
1	0x3d321147	0.04347351
2	0xbe280c78	-0.16411006
3	0xbd97a569	-0.07404596
4	0x3c1dccad	0.009631318
5	0xbe06c117	-0.13159595
6	0x3c33580c	0.010946285
7	0xbe503bf4	-0.2033537
8	0xbd2789e4	-0.040902987
9	0xbe5927f2	-0.21206644
10	0xbd4bc83f	-0.049751516
11	0x3df104d7	0.11768501
12	0x3df70d0a	0.12063034
13	0x3d9b6856	0.0758826
14	0x3cf61e2a	0.03004368
15	0x3ddd0d8a	0.10793598
16	0x3cc635ce	0.024195578
17	0x3c3a63ce	0.011376334
18	0x3d458480	0.048222065
19	0x3d1972c9	0.037462983
20	0x3c5826d1	0.013192848
21	0xbd8b810a	-0.068117216
22	0x3da8bc30	0.08239019
23	0x3e402791	0.18765093
24	0x3e9ac357	0.30227157
25	0x3e476783	0.1947308
26	0x3e93b34e	0.28847736
27	0x3cfc3e7b	0.030791512
28	0x3d49c107	0.04925635
29	0x3b1e8678	0.0024189036
30	0x3da7fdd8	0.08202714
31	0xbd5651ce	-0.05232411
32	0xbb817b60	-0.003951475
33	0xbbee87c2	-0.007279367
34	0x3d69e805	0.057106037
35	0x3d327b3f	0.043574568
36	0xbd82f25b	-0.06393882
37	0xbd8743a0	-0.06604695
38	0x3d3d7b0a	0.046259917
39	0x3d36bd05	0.044613857
40	0xbdaadfc0	-0.08343458
41	0xbd04e31d	-0.032443155
42	0xbc15dd44	-0.009146992
43	0xbd53e75f	-0.051734325
44	0xbd3749a0	-0.04474795
45	0xbcca1176	-0.02466653
46	0xbb9191ee	-0.004442445
47	0xbcb64193	-0.022248065
48	0xbd82e315	-0.06390969
49	0x3d46779a	0.048453905
50	0x3c8cfcce	0.01721039
51	0x3dab877d	0.08375452
52	0xbcbf472d	-0.023349369
53	0xbd2d95a1	-0.042379025
54	0xbca2105b	-0.01978319
55	0xba800789	-0.0009767871
56	0x3b3a142c	0.002839337
57	0xbd4de6ce	-0.05026894
58	0x3db5cc82	0.088768974
59	0xbd388afb	-0.045054417
60	0x3bf2cc26	0.0074095903
61	0x3dd796a9	0.10526783
62	0xbd306a7e	-0.04307031
63	0xbd16c222	-0.036806233
64	0x3ddb9658	0.10722035
65	0xbcb967bb	-0.02263247
66	0x3dcea612	0.10090269
67	0xbd92b6f4	-0.07163802
68	0xbdbcdee0	-0.092221975
69	0x3cc2ef73	0.023795819
70	0xbd7dfdbe	-0.062009566
71	0xbd66c0a4	-0.05633606
72	0xbd54a54a	-0.051915444
73	0xbd835487	-0.06412607
74	0xbbb27cb8	-0.0054469965
75	0xbb7e13ce	-0.0038769129
76	0x3d5fd4e7	0.0546464
77	0xbd45b9a9	-0.048272762
78	0x3d77970e	0.06044679
79	0xbdb1888e	-0.08668624
80	0x3c1f363a	0.009717518
81	0x3d002427	0.031284478
82	0xbd22c806	-0.03974154
83	0xbd6db339	-0.05803225
84	0x3c7621ad	0.015022677
85	0x3d3509e3	0.04419888
86	0xbde755fc	-0.11295697
87	0xbd96effa	-0.07369991
88	0x3b2cde80	0.0026377738
89	0xbd8c587b	-0.06852814
90	0x3d8f02c8	0.06982952
91	0xbbe2b124	-0.0069180895
92	0x3ddb409a	0.10705681
93	0xbcca7ed6	-0.024718683
94	0x3c39614e	0.011314703
95	0xbd5d4738	-0.054022998
96	0x3d397eee	0.045287065
97	0xbda4431d	-0.08020613
98	0xbd812202	-0.063053146
99	0xbd70eff6	-0.058822595
100	0x3d6b510b	0.057450335
101	0xbdc2e4ea	-0.09516318
102	0xba3001c7	-0.0006714132
103	0xbd693f85	-0.056945343
104	0xbce94b04	-0.028478153
105	0x3dc3c683	0.095593475
106	0x3d32bc38	0.04363653
107	0xbdbccecb	-0.0921913
108	0x3c33ccb7	0.010974101
109	0x3d42f963	0.047601115
110	0x3d8d1db5	0.06890432
111	0x3d3694b2	0.0445754
112	0x3dd1fe0c	0.10253534
113	0x3d6fd9f5	0.05855747
114	0x3a640b0d	0.00086991565
115	0xbd16f66d	-0.036856104
116	0x3b435512	0.0029805345
117	0x3dd6c45a	0.1048667
118	0x3e0064be	0.1253843
119	0x3d147edf	0.036253806
120	0x3e1b9308	0.15192807
121	0x3e482277	0.19544397
122	0x3e334061	0.17505027
123	0x3dcf1f0d	0.10113344
124	0x3d2b3622	0.041799672
125	0x3c0cf170	0.008602485
126	0x3d551139	0.052018378
127	0xbc538e96	-0.012912413
128	0xbd167e0d	-0.036741305
129	0x3de07ab0	0.10960901
130	0xbd7167bc	-0.05893682
131	0x3d32d6d9	0.043661926
132	0x3e65c2b6	0.22437558
133	0x3dab11ab	0.08352979
134	0x3dab6340	0.0836854
135	0x3dc5817e	0.09643839
136	0x3dd210f1	0.102571376
137	0xbd0162d7	-0.0315884
138	0x3c47bb2c	0.012190621
139	0x3dc5d06e	0.096588954
140	0x3d201fde	0.03909289
141	0xbcb99397	-0.022653384
142	0x3db89328	0.09012443
143	0x3e05c58e	0.13063642
144	0x3de1e2f9	0.1102962
145	0x3d1ded89	0.03855661
146	0xbaca4bb0	-0.0015433934
147	0x3de919b8	0.113818586
148	0x3e0397e0	0.12850904
149	0x3ddb8401	0.10718537
150	0xbd4a7898	-0.049431413
151	0x3de00500	0.10938454
152	0x3d7e0169	0.062013064
153	0x3cb4df8a	0.022079248
154	0xbd240ca9	-0.040051136
155	0x3dc95b89	0.09831912
156	0x3d8cf571	0.06882752
157	0x3d51932c	0.051165745
158	0xbc892d0d	-0.016745115
159	0x3d8cf92b	0.068834625
160	0xbd1422f4	-0.036166146
161	0x3d205663	0.039144885
162	0x3d0080ae	0.03137272
163	0xbbde7430	-0.006788753
164	0xbd113b43	-0.035456907
165	0x3c8d6b4b	0.017263075
166	0x3cf07270	0.029351443
167	0xbc56ce45	-0.013110702
168	0xbd895360	-0.06705356
169	0xbce72944	-0.02821792
170	0x3cf24d6e	0.029577937
171	0x3d2ebbd3	0.042659592
172	0x3c7d9d80	0.015479445
173	0x3cf37c22	0.029722277
174	0x3d2dc765	0.042426486
175	0x3d3cc798	0.046088785
176	0xbd3d150f	-0.04616266
177	0x3de252bd	0.11050937
178	0xbda0dc62	-0.07854535
179	0x3bde8658	0.0067909174
180	0xbe00ff6d	-0.12597437
181	0x3cc05ff4	0.023483254
182	0xbd757161	-0.05992258
183	0xbe325d2a	-0.17418352
184	0xbdfe472a	-0.12415917
185	0xbdcbe221	-0.0995524
186	0xbe4008be	-0.18753335
187	0x3e24433f	0.16041277
188	0x3e61a7b2	0.22036627
189	0x3e3b960e	0.1831896
190	0x3e25a71a	0.16177025
191	0x3e1d4b60	0.15360785
192	0x3d932017	0.07183855
193	0xbcd904de	-0.026491579
194	0x3cb22974	0.021748282
195	0x3b06979b	0.0020537141
196	0x3d488834	0.04895802
197	0xbd6726c9	-0.056433473
198	0xbd32ff61	-0.04370058
199	0xbc10f31b	-0.008847023
200	0x3d890f2c	0.06692347
201	0xbdb8e0b3	-0.09027233
202	0x3d8e3a28	0.06944686
203	0xbd606a31	-0.054788772
204	0xbd5253d4	-0.051349476
205	0xbd8d2eb4	-0.068936735
206	0xbc8700d3	-0.016479885
207	0x3dbeed4c	0.093226045
208	0xbd804640	-0.06263399
209	0xbdb06ea2	-0.086148515
210	0xbd72b315	-0.059252817
211	0xbc1a5742	-0.009420218
212	0x3dae11ed	0.08499513
213	0x3d2679ef	0.04064363
214	0x3dbd8d92	0.09255518
215	0x3dabe409	0.08393104
216	0xbcd318b3	-0.025768613
217	0xbd6b664c	-0.057470605
218	0xbbe2c4ab	-0.0069204173
219	0xbd80661f	-0.06269478
220	0xbc59a0b9	-0.013282948
221	0x3dba6867	0.091019444
222	0x3d0c4904	0.03424932
223	0x3d3a7b34	0.045527652
224	0xbcd7ff43	-0.026366835
225	0xbc9eaa7c	-0.019368403
226	0xbd8845f3	-0.06653967
227	0x3dad6ad2	0.0846764
228	0xbd09d049	-0.0336459
229	0x3c8a459b	0.016878894
230	0x3ce1c1a8	0.027558163
231	0x3c9832fe	0.018579002
232	0x3e09c97f	0.13455771
233	0xbc85ab76	-0.01631711
234	0x3d6e85c9	0.058233056
235	0xbd7e9be1	-0.062160376
236	0xbd66b1b6	-0.056321822
237	0xbd4b6734	-0.04965897
238	0x3d8c11a2	0.06839301
239	0x3d9a4d36	0.07534258
240	0x3dd3f230	0.10348928
241	0x3da5b14c	0.08090457
242	0x3dbed2a4	0.0931752
243	0x3bc3d7fa	0.005976674
244	0x3d4d9bb8	0.050197333
245	0xbdbc81cf	-0.092044465
246	0x3da1c831	0.078995116
247	0xbda6e95f	-0.08149981
248	0xbd1d7153	-0.038438153
249	0x3c224918	0.009905122
250	0xbb68a644	-0.0035499493
251	0xbcd3888d	-0.025821948
252	0x3e045e27	0.12926541
253	0xbc2ebc95	-0.010665079
254	0xbc10f4e5	-0.00884745
255	0xbbee453b	-0.0072714365

feature.0.bias f4 [16]
0	0xbce071fc	-0.027398102
1	0xbdd69472	-0.104775324
2	0x3bbfa4b9	0.005848494
3	0xbc6ac62a	-0.014329473
4	0x3d81ef7f	0.063445084
5	0xbdb6b491	-0.08921159
6	0xbcd438a8	-0.025905922
7	0x3c9a3776	0.018825274
8	0x3dd598df	0.104295485
9	0x3d824157	0.06360119
10	0x3c1f8c4a	0.009738037
11	0xbd57d585	-0.052693862
12	0x3d13bda3	0.036069524
13	0x3db0e339	0.08637089
14	0x3d8df6b2	0.06931819
15	0xbd6c89e0	-0.057748675

feature.1.weight f4 [16]
0	0x3f8a6ae4	1.081387
1	0x3f733979	0.9500957
2	0x3f7c1220	0.98465157
3	0x3f71832b	0.9434077
4	0x3f89f93c	1.0779185
5	0x3f889dfe	1.0673215
6	0x3f6b9783	0.92028064
7	0x3f8ea71b	1.1144747
8	0x3f875fe7	1.0576142
9	0x3f89d3a8	1.0767717
10	0x3f812f01	1.009247
11	0x3f700935	0.9376405
12	0x3f874f00	1.0570984
13	0x3f6b208c	0.9184654
14	0x3f7e132b	0.99248
15	0x3f6f1f5d	0.9340723

feature.1.bias f4 [16]
0	0x3d12cbb1	0.035838787
1	0x3d9ff759	0.0781085
2	0x3dba0620	0.090831995
3	0x3d8a6ac4	0.06758645
4	0xbcb472da	-0.022027422
5	0x3e40e8e3	0.18838839
6	0xbc7d9223	-0.015476736
7	0xbd884a1f	-0.066547625
8	0x3d57fa08	0.052728683
9	0x3dab4605	0.083629645
10	0x3d9b1f12	0.075742856
11	0xbe4534f9	-0.19258489
12	0x3dcfc42a	0.10144837
13	0x3e3efa97	0.1865028
14	0xbd8aa3b8	-0.06769508
15	0xbb58cdd2	-0.0033081663

feature.1.running_mean f4 [16]
0	0xbcde3a02	-0.02712727
1	0xbdd633c4	-0.10459092
2	0x3bbc372d	0.005743882
3	0xbc6c7e6f	-0.014434441
4	0x3d825abb	0.06364962
5	0xbdb660da	-0.08905192
6	0xbcd67d06	-0.026182663
7	0x3c9a9199	0.018868254
8	0x3dd5f984	0.10447982
9	0x3d820583	0.063487075
10	0x3c206ab2	0.009791063
11	0xbd57b79a	-0.05266533
12	0x3d143c11	0.036190096
13	0x3db1028f	0.08643066
14	0x3d8d63c1	0.06903792
15	0xbd6d4c22	-0.057933934

feature.1.running_var f4 [16]
0	0x3fbbd5b4	1.4674592
1	0x4078a006	3.884767
2	0x3f1dc6b8	0.61631346
3	0x3f628e4e	0.8849839
4	0x3ffb4498	1.9630308
5	0x3f9830e4	1.188992
6	0x3f968627	1.175969
7	0x3f9eb69e	1.239948
8	0x401142d4	2.2697039
9	0x3f8e0941	1.1096574
10	0x401204e8	2.2815495
11	0x3fd49c15	1.6610132
12	0x404b4475	3.1760533
13	0x3f4172c8	0.7556577
14	0x40346b56	2.8190513
15	0x3f845d89	1.0341045

feature.4.weight f4 [32, 16, 5]
0	0x3d035a73	0.03206868
1	0xbcb5ba7e	-0.022183653
2	0x3d780dda	0.060560085
3	0xbd9bb441	-0.0760274
4	0xbd8d7429	-0.069069214
5	0xbc8c6e9e	-0.01714259
6	0xbdf054d0	-0.11734927
7	0xbdcf85f1	-0.10132969
8	0xbdec601b	-0.11541768
9	0xbcd35087	-0.025795234
10	0xbdfb16db	-0.12260219
11	0xbde2a152	-0.11065926
12	0x3cccc53d	0.024996394
13	0x3d0eb317	0.034838762
14	0xbd9a114f	-0.075228326
15	0x3de5f834	0.112289816
16	0xbddc1e9e	-0.10748027
17	0x3da85ae7	0.08220463
18	0x3d70eaa1	0.05881751
19	0xbd6b42a9	-0.05743662
20	0x3d360ec2	0.044447668
21	0xbe0f8553	-0.14015703
22	0x3dfd89d6	0.12379806
23	0x3d299e79	0.041410897
24	0xbdb7406e	-0.08947836
25	0x3d9f78e9	0.07786734
26	0x3e086f50	0.13323712
27	0x3c85dd60	0.016340911
28	0xbd29da08	-0.041467696
29	0xbd83876a	-0.064223126
30	0x3d98526f	0.07437598
31	0xbd397207	-0.04527476
32	0xbe103191	-0.14081408
33	0xbc998c33	-0.01874361
34	0xbddadc43	-0.10686543
35	0xbdf9fa0d	-0.122058965
36	0xbdde1a07	-0.10844808
37	0x3e12b97c	0.14328569
38	0xbab99de4	-0.0014161435
39	0x3e2abef2	0.16674402
40	0xbdb85dea	-0.09002288
41	0xbd0ed351	-0.034869496
42	0xbdc8680b	-0.097854696
43	0xbdb7a1ae	-0.08966385
44	0x3d43cfce	0.0478056
45	0xbe094b77	-0.13407694
46	0xbdc7f021	-0.09762598
47	0xbe4522eb	-0.19251601
48	0xbd90c7b3	-0.070693396
49	0x3dbe1bff	0.092826836
50	0xbde101d1	-0.109866746
51	0xbd3ae705	-0.045630474
52	0x3cecd2de	0.028909143
53	0x3e0cd000	0.1375122
54	0x3ca1a378	0.019731268
55	0xbdc55865	-0.096360005
56	0xbd7e6d87	-0.062116172
57	0x3d88eff5	0.06686393
58	0xbd0afe17	-0.033933725
59	0x3d9a5a2a	0.07536729
60	0x3c99119d	0.018685156
61	0x3e1f9c7a	0.15587035
62	0x3ceb45b1	0.028719755
63	0x3d56ca42	0.05243898
64	0xbd5555fa	-0.052083947
65	0x3d9394d6	0.072061226
66	0xbdc8dc4c	-0.09807643
67	0xbdec3060	-0.11532664
68	0x3ca8ebdf	0.020620285
69	0x3db3c081	0.087769516
70	0xbd12ca41	-0.035837416
71	0x3be99354	0.0071281586
72	0xbd7c15ae	-0.061544113
73	0xbdf6ada3	-0.12044837
74	0xbdd7ebfc	-0.10543057
75	0xbab014b0	-0.00134339
76	0xbdbc58c6	-0.0919662
77	0xbe0672e2	-0.13129762
78	0xbb34d794	-0.0027594315
79	0x3b9ed36d	0.0048469813
80	0xbe20c4ca	-0.15700069
81	0x3bd7474e	0.0065697795
82	0xbd6b6821	-0.057472352
83	0x3ddf948e	0.109170064
84	0x3dc977e1	0.09837318
85	0x3d0411eb	0.03224365
86	0xbd28e7fa	-0.041236855
87	0x3dbc9046	0.092072055
88	0x3dda71d2	0.10666241
89	0xbd9e3c55	-0.07726351
90	0xbe010cab	-0.12602489
91	0xbdf1e36b	-0.11810955
92	0x3d1aafd8	0.037765354
93	0xbe04280b	-0.129059
94	0x3d3bbb68	0.04583302
95	0xbdbe68e3	-0.09297349
96	0xbd929f95	-0.07159344
97	0xbd1ec13d	-0.038758505
98	0xbdcbdb80	-0.09953976
99	0xbe312b91	-0.17301776
100	0x3d7add78	0.061246365
101	0xbdf69224	-0.12039593
102	0xbd76735f	-0.06016862
103	0x3dff6c19	0.1247179
104	0x3dd70d2d	0.1050056
105	0xbc1fbc7a	-0.009749526
106	0x3dc684e0	0.09693313
107	0x3e1e85e9	0.1548077
108	0x3b82b0ce	0.003988362
109	0xbd1bfc57	-0.038082447
110	0xbbd9de45	-0.006648811
111	0xbc51353f	-0.0127690425
112	0xbdacea54	-0.08443132
113	0xbdec971e	-0.11552261
114	0xbe22b81a	-0.15890542
115	0x3cc9b965	0.024624536
116	0xbd8995b6	-0.06718008
117	0xbae2dd9e	-0.0017308479
118	0x3de85a94	0.113454014
119	0xbde38572	-0.11109437
120	0xbd9230b8	-0.071381986
121	0xba550c77	-0.00081271626
122	0xbc993e20	-0.018706381
123	0x3da6ba69	0.08141024
124	0x3d3285b0	0.043584526
125	0xbdd9ef72	-0.10641374
126	0x3d82785e	0.063706145
127	0xbd2870f6	-0.041123353
128	0x3e0e22c5	0.13880451
129	0x3d7f321c	0.062303647
130	0xbe050f9d	-0.12994237
131	0xbdf15ba0	-0.11785054
132	0xbdaaa065	-0.08331374
133	0x3d74f986	0.059808277
134	0xbdaf9423	-0.08573177
135	0xbc95f1d1	-0.018303784
136	0x3dc8befd	0.09802053
137	0x3dc7a04e	0.097473726
138	0x3d8f2d7d	0.06991098
139	0xbdc5b17f	-0.09652995
140	0x3d38560f	0.045003947
141	0xbdcd2a51	-0.10017837
142	0x3cb17891	0.021663936
143	0x3da99d8d	0.082820036
144	0x3d15836d	0.03650229
145	0xbd0e70d4	-0.03477557
146	0xbc8c7ed1	-0.017150315
147	0x3d7d87e4	0.061897174
148	0xbdd24616	-0.10267274
149	0x3cfcdc44	0.03086675
150	0x3d99a3de	0.07501958
151	0x3d9e67ce	0.07734643
152	0xbc4a2cd6	-0.012339791
153	0x3e07673d	0.13222976
154	0x3dda5195	0.10660092
155	0x3d505649	0.050863538
156	0xbc1b1978	-0.009466521
157	0x3be753f2	0.0070595676
158	0x3c6d2034	0.01447301
159	0xbc9b7f16	-0.018981498
160	0x3dcca38b	0.09992131
161	0xbd586a3a	-0.05283568
162	0xbdfbc3c0	-0.12293196
163	0x3b05b1eb	0.0020400237
164	0xbd2a0818	-0.041511625
165	0xbcb5a7b5	-0.022174696
166	0x3d88efca	0.06686361
167	0xbc6df5a1	-0.0145238945
168	0xbdd6cba1	-0.10488058
169	0xbd9183b2	-0.07105197
170	0x3d7082f1	0.058718625
171	0xba7090a2	-0.00091768254
172	0xbd354f26	-0.044264935
173	0xbd5f76e2	-0.054556735
174	0x3dbd1b6a	0.092337444
175	0xbdbbf96f	-0.09178435
176	0xbc01a113	-0.007911938
177	0xbe06181e	-0.13095137
178	0x3d5ef939	0.054436896
179	0x3ce73974	0.028225638
180	0x3e32aa21	0.17447712
181	0x3e14d5e5	0.1453472
182	0xbdce6bc2	-0.10079147
183	0x3babd03c	0.0052433293
184	0xbc82287f	-0.01588845
185	0x3c4800f6	0.01220726
186	0x3d63160b	0.055440944
187	0x3c680e94	0.014163632
188	0x3de10bbc	0.10988566
189	0x3d82f526	0.063944146
190	0xbb8c57e7	-0.0042829397
191	0x3dd38311	0.10327733
192	0xbd279e96	-0.040922724
193	0x3cb7b382	0.022424463
194	0x3dad2908	0.08455092
195	0x3deb5ec1	0.11492682
196	0xbde19144	-0.11014035
197	0xbcf6552f	-0.030069916
198	0xbde253dc	-0.11051151
199	0x3d3a6238	0.045503825
200	0xbdd585c0	-0.104259014
201	0xbc172bfd	-0.009226796
202	0xbe091c3b	-0.13389675
203	0xbd54b05a	-0.051925994
204	0x3e46abd6	0.19401488
205	0x3dd2ac05	0.10286716
206	0xbcbd56f4	-0.023112752
207	0x3e0841d1	0.13306357
208	0xbdf9687b	-0.12178131
209	0x3c4d5121	0.01253155
210	0x3d7ff744	0.06249167
211	0xbd8fe87e	-0.07026766
212	0x3d8d409f	0.06897091
213	0xbdc119f5	-0.09428779
214	0xbdfbafc1	-0.12289382
215	0xbd9fd83b	-0.078049146
216	0x3dead5e5	0.114665784
217	0xbdaf2e4f	-0.085537545
218	0xbd17c92c	-0.037057087
219	0x3d9270e8	0.071504414
220	0x3c8100db	0.015747478
221	0x3d9b55d3	0.07584729
222	0xbdfd93f6	-0.12381737
223	0xbe95f0a1	-0.29285148
224	0xbe551cf5	-0.20811827
225	0x3c9a2f63	0.018821424
226	0x3d1900b5	0.03735419
227	0x3d09f102	0.03367711
228	0xbe1321b8	-0.14368331
229	0x3d159573	0.03651948
230	0x3ce6f3ac	0.028192364
231	0x3ce1439d	0.02749806
232	0xbdbe1067	-0.09280472
233	0xbd033249	-0.032030378
234	0xbc6a7e18	-0.01431229
235	0xbcca4893	-0.02469281
236	0xbcc97b29	-0.02459486
237	0x3ca06ef3	0.019584155
238	0xbc48d7e5	-0.0122585045
239	0x3d837c84	0.06420234
240	0xbdad3cf1	-0.08458889
241	0x3de3d55e	0.11124681
242	0xbd307103	-0.043076526
243	0xbdafcc89	-0.08583934
244	0xbb729400	-0.0037014484
245	0xbdd3a124	-0.103334695
246	0xbdbe7644	-0.09299901
247	0xbd1e33fd	-0.0386238
248	0x3d1ccbc3	0.03828026
249	0x3db0e74d	0.08637867
250	0xbe0ae898	-0.1356529
251	0x3d8ab89d	0.067734934
252	0x3d693369	0.056933794
253	0xbdde1d56	-0.10845439
254	0xbc8fd5cd	-0.017558003
255	0xbde07cba	-0.1096129

feature.4.bias f4 [32]
0	0xbcceb852	-0.025234375
1	0x3da048f1	0.078264125
2	0xbe0cab0a	-0.13737121
3	0xbc6f7db6	-0.014617374
4	0x3da83443	0.08213093
5	0xbdffa154	-0.12481943
6	0xbd47e733	-0.048804473
7	0xbd1a68ad	-0.037697483
8	0xbdf476f1	-0.11936749
9	0xbd55286d	-0.052040506
10	0xbd6acc98	-0.057324022
11	0x3d7e04ad	0.062016178
12	0x3c8cc868	0.017185405
13	0xbd46521a	-0.048418142
14	0x3d20e479	0.03928039
15	0x3cde6f16	0.02715258
16	0x3cf7eff7	0.030265791
17	0x3d927c74	0.07152644
18	0x3c298634	0.010346938
19	0x3da4f009	0.080535956
20	0x3df593f9	0.11991114
21	0xbdec8076	-0.115479395
22	0x3c8f1aac	0.017468773
23	0xbdada7f5	-0.08479301
24	0x3d00b409	0.031421695
25	0x3e1ed360	0.1551032
26	0xbd6be49e	-0.057591073
27	0xbd61ca26	-0.055124424
28	0x3d7d7e12	0.06188781
29	0x3e134149	0.14380373
30	0xbcf420ed	-0.029800856
31	0x3cc29471	0.023752423

feature.5.weight f4 [32]
0	0x3f7b4b09	0.9816137
1	0x3f79d9eb	0.9759814
2	0x3f862d70	1.0482616
3	0x3f8a99be	1.0828168
4	0x3f880f3f	1.0629653
5	0x3f724c7c	0.94647956
6	0x3f7d6faa	0.9899851
7	0x3f5d04b3	0.86335295
8	0x3f82ef93	1.0229362
9	0x3f82a26d	1.0205818
10	0x3f8bd911	1.0925618
11	0x3f8a6946	1.0813377
12	0x3f7e4de4	0.993376
13	0x3f77f7f5	0.9686273
14	0x3f86b4e0	1.0523949
15	0x3f6cf7d7	0.92565674
16	0x3f81f5de	1.0153158
17	0x3f687898	0.9080901
18	0x3f791b94	0.97307706
19	0x3f7825d9	0.9693275
20	0x3f751596	0.9573606
21	0x3f89871c	1.0744357
22	0x3f7f2dae	0.99679077
23	0x3f7e6533	0.9937317
24	0x3f8166bc	1.0109477
25	0x3f878b02	1.0589297
26	0x3f821f14	1.0165734
27	0x3f761e01	0.9613953
28	0x3f82122a	1.0161793
29	0x3f85c5d4	1.0450997
30	0x3f7b90b4	0.98267674
31	0x3f804401	1.0020753

feature.5.bias f4 [32]
0	0xbd4f3195	-0.050584394
1	0xbdafc000	-0.08581543
2	0x3d008a53	0.031381916
3	0x3d20482e	0.039131336
4	0xbca88e68	-0.020575717
5	0xbd4d6427	-0.05014434
6	0x3cb54c2c	0.022131048
7	0xbd42dd54	-0.047574356
8	0xbc8d75ee	-0.017268147
9	0xbcb183bb	-0.02166926
10	0xbd0d091e	-0.034432523
11	0xbdf467fd	-0.11933897
12	0xbe0ebc9d	-0.13939138
13	0xbd330303	-0.043704044
14	0x3d7a80da	0.06115804
15	0xbd9dfcd3	-0.07714238
16	0xbdbb70e9	-0.09152395
17	0xbe1835e7	-0.14864312
18	0xbe11e7da	-0.142486
19	0xbd4f0c95	-0.05054911
20	0xbd4a2120	-0.049347997
21	0xbce6c328	-0.02816923
22	0xbde76844	-0.11299184
23	0xbdcf3bfe	-0.101188645
24	0xbdebd318	-0.11514872
25	0xbd0599f8	-0.03261754
26	0xbd707625	-0.05870642
27	0xbd46f65a	-0.048574783
28	0xbd4181fc	-0.047243103
29	0xbd4562b9	-0.048189852
30	0x3bf4f7f9	0.0074758497
31	0xbd16b036	-0.03678914

feature.5.running_mean f4 [32]
0	0xbf622066	-0.88330686
1	0xbdaf443f	-0.08557939
2	0xbed3773b	-0.41301903
3	0xbf145225	-0.5793784
4	0x3d88159e	0.06644748
5	0x3dd9456b	0.106089436
6	0xbe8b1aa7	-0.27168772
7	0x3f866a7a	1.0501244
8	0xbec88ed4	-0.3917147
9	0xbfca07f5	-1.5783678
10	0xbe921d41	-0.28537944
11	0xbf17e052	-0.5932666
12	0xbede56c5	-0.43425575
13	0xbf2701c5	-0.65237075
14	0xbf1466d1	-0.57969385
15	0xbd50f995	-0.05101927
16	0x3d8de1b1	0.06927813
17	0x3ebf997d	0.3742179
18	0xbeaec01f	-0.34130952
19	0x3de65d6b	0.11248287
20	0x3e40d44c	0.18830985
21	0xbf20f1ce	-0.62868965
22	0xbeb7751f	-0.35831544
23	0xbf0d949c	-0.55304885
24	0xbeddb371	-0.43300965
25	0xbe3dbef0	-0.18529868
26	0xbf21f650	-0.6326647
27	0x3c55000e	0.013000501
28	0xbdc02030	-0.09381139
29	0xbf4b645d	-0.7945002
30	0xbecc2a86	-0.39876193
31	0x3d1f9e43	0.03896929

feature.5.running_var f4 [32]
0	0x3f3f6bb8	0.7477374
1	0x3eae65db	0.34062085
2	0x3ec03f8b	0.3754848
3	0x3f0fb5ca	0.56136763
4	0x3f129784	0.57262444
5	0x3eaa7006	0.33288592
6	0x3e5f866a	0.21828619
7	0x3f19eb77	0.60124916
8	0x3e867bf1	0.26266435
9	0x3fd9705b	1.6987413
10	0x3e60b421	0.21943714
11	0x3ef40ff5	0.47668424
12	0x3eb419e9	0.35176018
13	0x3f311363	0.69170207
14	0x3f095cfc	0.5365751
15	0x3eca739a	0.39541322
16	0x3e4b03b3	0.1982563
17	0x3eefdf76	0.46850175
18	0x3f057ecb	0.52146596
19	0x3e8ee1f0	0.27906752
20	0x3eb9f3f8	0.36318946
21	0x3eeba1f4	0.46021998
22	0x3eb3cbdf	0.3511648
23	0x3ed988d8	0.42487216
24	0x3eafa162	0.34302813
25	0x3ee6a906	0.4505083
26	0x3f0caed7	0.54954284
27	0x3eddc760	0.43316174
28	0x3eaf92f9	0.3429182
29	0x3f856cd6	1.0423839
30	0x3f0d52d9	0.5520454
31	0x3ea7c8fd	0.3277053

feature.8.weight f4 [64, 32, 3]
0	0xbddeaf58	-0.10873288
1	0x3d7ca67a	0.061682202
2	0xbc992498	-0.018694207
3	0x3d85d245	0.06534246
4	0x3db23c36	0.087028906
5	0x3dc836af	0.09776055
6	0xbd45891b	-0.048226457
7	0xbd98f6db	-0.07468959
8	0xbd47ae6d	-0.04875033
9	0x3cb43121	0.021996083
10	0x3c18235e	0.009285776
11	0xbd87b59a	-0.066264346
12	0xbcf9473b	-0.030429473
13	0x3d8ea352	0.06964745
14	0x3d6ba8fc	0.057534203
15	0xbd24cd5f	-0.04023492
16	0xbc17fded	-0.009276849
17	0xbaa757e4	-0.0012767282
18	0xbdcb12cc	-0.099156946
19	0xbd103b82	-0.035213
20	0x3b3774ee	0.002799328
21	0x3db5833e	0.08862923
22	0x3cae9375	0.021310547
23	0x3dcf12c4	0.10111001
24	0xbe0a4cfa	-0.13505927
25	0xbc10c65e	-0.008836357
26	0xbd900fa8	-0.07034236
27	0x3d0140e0	0.03155601
28	0xbdfadad8	-0.122487724
29	0xbcc4a489	-0.024004238
30	0xbb4ed184	-0.0031557987
31	0xbd615c6d	-0.055019785
32	0xbc3451dc	-0.011005845
33	0xbe2929ec	-0.16519898
34	0xbd192d6b	-0.03739683
35	0xbdd1ba32	-0.10240592
36	0x3d2e37a6	0.04253354
37	0xbceae62e	-0.028674211
38	0x3c89b903	0.016811853
39	0xbcab5844	-0.020916112
40	0xbd50a882	-0.05094195
41	0xbdb20c20	-0.08693719
42	0x3d51bc76	0.05120512
43	0xbdb69a6a	-0.08916171
44	0x3de136b6	0.109967634
45	0x3e1ff811	0.15621974
46	0xbb02ad4e	-0.0019939723
47	0x3d6bcf5b	0.057570796
48	0x3d54dd5d	0.05196892
49	0xb90b38a5	-0.00013277175
50	0x3d875b58	0.06609219
51	0xbdaad8e3	-0.08342149
52	0x3b92609b	0.0044670827
53	0x3de12c07	0.10994726
54	0x3d9d2db9	0.076747365
55	0xbdd8a1e5	-0.10577754
56	0xbd5e0399	-0.05420265
57	0xbd7dc9e4	-0.061960116
58	0x3d3f3771	0.046683732
59	0x3dc42bae	0.09578644
60	0xbce47108	-0.027885929
61	0xbc9c96c8	-0.019114867
62	0x3c38894e	0.011263205
63	0x3c006300	0.007836103
64	0x3df1b88a	0.11802776
65	0xbda686a4	-0.081311494
66	0xbd9ab48b	-0.07553967
67	0xbd464e8e	-0.04841476
68	0xbdd82b9a	-0.10555191
69	0xbccf17a4	-0.025279827
70	0xbd868710	-0.0656873
71	0x3dc2222f	0.09479176
72	0xbe2e5817	-0.17025791
73	0x3d9782b6	0.07397978
74	0xbc8f11f1	-0.01746461
75	0xbd91e30f	-0.07123386
76	0xbdd8af63	-0.10580327
77	0x3bda68d6	0.0066653294
78	0x3dd2c365	0.10291175
79	0xbb57c24a	-0.0032922202
80	0x3dd4a28c	0.10382566
81	0x3e0e7ae7	0.13914071
82	0x3db40dee	0.087917194
83	0x3d848876	0.0647134
84	0x3db8861b	0.090099536
85	0x3df2fd99	0.11864776
86	0x3cedecab	0.029043516
87	0x3d0e172c	0.034690067
88	0xbbf947d7	-0.007607441
89	0x3c17e7c9	0.0092715705
90	0x3dddfeaf	0.10839593
91	0xbd187916	-0.03722485
92	0xbcbbd228	-0.022927359
93	0x3dc5a7e3	0.096511625
94	0xbdc4de5a	-0.09612723
95	0x3cdd0eb4	0.02698455
96	0x3dd79ef1	0.105283625
97	0xbd87c0c6	-0.066285655
98	0x3d1a8efa	0.03773401
99	0xbd8ef487	-0.06980234
100	0x3dae2b48	0.08504349
101	0x3d663ac3	0.056208383
102	0x36efc310	7.1454633e-06
103	0xbde8ba2e	-0.11363636
104	0x3dc501a0	0.096194506
105	0xbcceed89	-0.02525975
106	0x3d5961ae	0.05307167
107	0xbce4face	-0.027951624
108	0xbd9bfcfe	-0.07616614
109	0x3cf8b986	0.030361902
110	0xbc898282	-0.016785864
111	0xbd895c0d	-0.067070104
112	0xbdd9cfc4	-0.10635331
113	0xbcf1c046	-0.029510628
114	0xbd82ba7c	-0.06383225
115	0xbdaaab05	-0.08333401
116	0x3dacdc99	0.08440513
117	0x3d78ba27	0.060724404
118	0x3ce02e36	0.027365785
119	0xbc9c4589	-0.019076126
120	0xbc96547d	-0.018350834
121	0xbdae9c75	-0.085259356
122	0x3d49cbc3	0.049266588
123	0x3d9316e5	0.07182101
124	0xbb82dca1	-0.003993586
125	0x3cd4dd77	0.025984509
126	0xbe07e88b	-0.13272302
127	0x3d14ee69	0.03636018
128	0xbc9eaacf	-0.019368557
129	0xbcdb3520	-0.02675873
130	0xbe66f048	-0.22552598
131	0x3d12fff8	0.035888642
132	0xbdfe8b64	-0.124289304
133	0x3daff8cf	0.08592378
134	0x3d8d2223	0.06891277
135	0xbdb7aeac	-0.08968863
136	0x3d998155	0.07495371
137	0xbca33de6	-0.019926976
138	0xbdf36aa0	-0.118855715
139	0x3d9d8c43	0.076927684
140	0x3d4e7e71	0.050413553
141	0x3c42b922	0.011884959
142	0xbd78d7cf	-0.060752686
143	0x3d4714e7	0.04860392
144	0xbe5a5d08	-0.21324551
145	0xba905df6	-0.0011014331
146	0x3e19752a	0.14986101
147	0xbd711a33	-0.058862876
148	0xbb5d5551	-0.0033772776
149	0xbd9b972c	-0.07597193
150	0xbdacdb85	-0.084403075
151	0xbb6174cc	-0.0034401892
152	0xbc0affc6	-0.008483833
153	0xbdc0f11e	-0.094209895
154	0xbd836211	-0.06415189
155	0x3a97d043	0.0011582453
156	0xbccf41eb	-0.025299987
157	0x3c9dc7c2	0.019260291
158	0xbd8f640d	-0.07001505
159	0xbdc98e32	-0.09841575
160	0xbd284e49	-0.041090284
161	0x3d7b7350	0.061389267
162	0x3d432c53	0.047649693
163	0x3db85700	0.09000969
164	0xbdb72348	-0.08942276
165	0xbdb7b634	-0.08970299
166	0xbe13d309	-0.14435972
167	0x3e0f662a	0.14003816
168	0xbc9dd6b0	-0.01926741
169	0xbca427fd	-0.0200386
170	0xbdfa7173	-0.1222867
171	0x3d2fb940	0.042901278
172	0xbd71efc5	-0.059066553
173	0x3dc6efd8	0.09713715
174	0x3c4732c5	0.0121581005
175	0xbe12c0d8	-0.14331377
176	0xbd8c2231	-0.06842459
177	0x3d224373	0.039615106
178	0x3d0bc561	0.034123782
179	0x3c84a569	0.016192155
180	0xbd8e2c93	-0.069420956
181	0x3cc30297	0.023804946
182	0xbaaed2b1	-0.0013337937
183	0x3d6dcab1	0.05805463
184	0x3c2af568	0.010434486
185	0xbd206f3b	-0.039168578
186	0x3bc5dab4	0.0060380343
187	0xbcf3b62b	-0.02974995
188	0x3d8fe1cb	0.070254885
189	0xbd562fa0	-0.052291512
190	0xbc09168c	-0.008367192
191	0xbdaa7f41	-0.08325053
192	0xbd72bac1	-0.059260134
193	0x3e1caf01	0.15301134
194	0x3d427170	0.047471464
195	0x3d586398	0.052829355
196	0xbd607a17	-0.054803934
197	0xbc165528	-0.009175576
198	0xbe11f3dd	-0.14253183
199	0xbddeafaf	-0.10873353
200	0xbd02810f	-0.03186136
201	0xbd05ee2c	-0.03269784
202	0xbdbe6ea3	-0.09298446
203	0x3d574dc1	0.052564386
204	0xbc733237	-0.014843515
205	0x3df4f40a	0.11960609
206	0xbc8f1832	-0.017467592
207	0x3d87b8a2	0.06627013
208	0x3d290584	0.041265026
209	0x3d3435cc	0.043996617
210	0xbdfb7994	-0.122790486
211	0x3ccffe8d	0.025389934
212	0x3d61ef23	0.0551597
213	0x3c2c86f5	0.010530223
214	0x3c8c3a35	0.017117599
215	0x3de6c4cf	0.11268007
216	0x3d738551	0.059453312
217	0x3d30b2dc	0.043139324
218	0x3d73e4f0	0.059544504
219	0x3c7dc5e5	0.015489076
220	0x3deac57c	0.114634484
221	0x3d6fb4a8	0.058521897
222	0xbe1763bd	-0.14784141
223	0x3ba040fa	0.0048905583
224	0xbdaaa292	-0.08331789
225	0xbe21e07b	-0.15808289
226	0xbe615eb8	-0.22008789
227	0xbd6a0326	-0.05713191
228	0x3d8023e0	0.062568426
229	0x3e429730	0.19002986
230	0x3d9a88de	0.075456366
231	0xbc8a1252	-0.016854439
232	0xbc9356a2	-0.017985646
233	0x3db358fa	0.08757205
234	0xbdcdbc50	-0.100456834
235	0xbcef3a1f	-0.029202519
236	0xbdb12c52	-0.086510316
237	0xbda875bf	-0.08225583
238	0xbd8d525d	-0.06900475
239	0x3d7ae585	0.061254043
240	0x3cc5eaba	0.024159778
241	0x3d01bfef	0.031677183
242	0xbd42c59b	-0.047551733
243	0xbdf55a75	-0.11980144
244	0xbcf7fad1	-0.030270966
245	0xbd1400fc	-0.03613375
246	0xbd994cd8	-0.0748536
247	0xbd82936c	-0.06375775
248	0x3bbd662a	0.005780001
249	0x3e182ab4	0.1486004
250	0x3d9f4c3a	0.07778211
251	0xbcbb21e2	-0.022843305
252	0x3cd78cc6	0.026312243
253	0xbd06619e	-0.03280794
254	0x3dcda209	0.100406714
255	0xbb9eff9b	-0.004852248

feature.8.bias f4 [64]
0	0x3da845cc	0.08216438
1	0xbc74effb	-0.014949794
2	0xbd4df875	-0.050285775
3	0xbdc915f8	-0.09818643
4	0xbbbdd0af	-0.0057926993
5	0x3cc57e28	0.024108008
6	0xbce1c6ce	-0.027560618
7	0x3b76c772	0.00376555
8	0x3dbc857c	0.092051476
9	0xbd9a3d90	-0.07531273
10	0x3da98228	0.082767785
11	0x3b6d2d03	0.003619016
12	0x3d4f978b	0.050681632
13	0xbc77edd5	-0.015132387
14	0x3d0ba72d	0.034094978
15	0x3e061b96	0.1309646
16	0xbdd6ad6d	-0.10482297
17	0xbdf1488c	-0.11781415
18	0x3d461a31	0.04836482
19	0x3dad9409	0.08475501
20	0x3d288d87	0.041150596
21	0x3d8a37c9	0.067489214
22	0x3c388a33	0.011263418
23	0x3ce84990	0.02835539
24	0xbac6d842	-0.0015170651
25	0x3dd493f5	0.10379783
26	0xbd30bcbb	-0.043148737
27	0xbd817e9f	-0.06322979
28	0xbdb70d85	-0.089381255
29	0x3d27fc39	0.041012023
30	0x3d81c2ac	0.06335959
31	0xbbacf8d6	-0.005278687
32	0xbd92aba7	-0.07161646
33	0xbda244ab	-0.079232536
34	0xbd9184c0	-0.07105398
35	0x3de35558	0.111002624
36	0xbc5ec41d	-0.013596562
37	0x3dcdf928	0.100572884
38	0xbcdf8e93	-0.027289664
39	0x3d78967a	0.06069038
40	0xbcdd2f05	-0.02699996
41	0x3d946edc	0.07247707
42	0xba3e8abe	-0.0007268599
43	0xbced5037	-0.028968913
44	0xbd18638d	-0.037204314
45	0x3db81eda	0.089902595
46	0xbc63e719	-0.013910078
47	0x3dd9e820	0.106399775
48	0xbcb047c3	-0.021518594
49	0xbdeeb232	-0.11655082
50	0x3dbd018c	0.09228811
51	0x3d8aeb9a	0.06783219
52	0xbd2e25c0	-0.04251647
53	0x3bebf703	0.007201077
54	0x3cac9fc5	0.021072278
55	0xbdc8bc83	-0.09801581
56	0x3cdb4980	0.026768446
57	0xbda161ac	-0.078799576
58	0x3d2a8810	0.041633666
59	0xbda7fc9e	-0.0820248
60	0xbd744143	-0.05963255
61	0x3db7e21a	0.08978672
62	0xbdb03544	-0.086039096
63	0x3d9b3038	0.07577556

feature.9.weight f4 [64]
0	0x3f7227a1	0.9459172
1	0x3f696d45	0.9118236
2	0x3f815d92	1.010668
3	0x3f7a5966	0.9779266
4	0x3f850e2a	1.0394948
5	0x3f7e3914	0.99305844
6	0x3f81fffe	1.0156248
7	0x3f886f58	1.065898
8	0x3f76d0cb	0.9641234
9	0x3f6cff7f	0.92577356
10	0x3f8384be	1.0274885
11	0x3f7ab192	0.979272
12	0x3f8369f8	1.0266714
13	0x3f8d363b	1.1032175
14	0x3f81280e	1.0090349
15	0x3f7e8161	0.99416167
16	0x3f8257b4	1.0183015
17	0x3f854905	1.0412909
18	0x3f6091db	0.8772256
19	0x3f81ba6c	1.0135016
20	0x3f6dd5c4	0.92904305
21	0x3f74fb23	0.95695704
22	0x3f73e279	0.95267445
23	0x3f871b71	1.055525
24	0x3f7ad81c	0.97986007
25	0x3f743e12	0.9540721
26	0x3f8607eb	1.0471166
27	0x3f84c7bc	1.0373454
28	0x3f803e1e	1.0018957
29	0x3f75455d	0.95808965
30	0x3f6b71f1	0.91970736
31	0x3f8379b6	1.0271518
32	0x3f749996	0.95546854
33	0x3f890cfa	1.0707085
34	0x3f84681a	1.0344269
35	0x3f83c610	1.0294819
36	0x3f7f2c0b	0.9967658
37	0x3f7d293d	0.9889105
38	0x3f6ca9ed	0.92446786
39	0x3f7a7756	0.9783834
40	0x3f84484d	1.0334564
41	0x3f759540	0.9593086
42	0x3f76e5fe	0.9644469
43	0x3f7e140a	0.9924933
44	0x3f74fa51	0.9569445
45	0x3f69f6f0	0.9139242
46	0x3f88e1b9	1.0693885
47	0x3f853cd2	1.0409186
48	0x3f7a6673	0.97812575
49	0x3f7bbdad	0.983363
50	0x3f842fe8	1.032712
51	0x3f833c36	1.025275
52	0x3f7b8d65	0.98262626
53	0x3f797e22	0.9745809
54	0x3f73f4ce	0.9529542
55	0x3f78e857	0.9722952
56	0x3f83f3ba	1.0308754
57	0x3f8bbe79	1.0917503
58	0x3f8299e8	1.0203218
59	0x3f8101e2	1.00787
60	0x3f7d5c5a	0.9896904
61	0x3f868669	1.0509769
62	0x3f7e2279	0.9927135
63	0x3f73d33a	0.9524418

feature.9.bias f4 [64]
0	0xbe2022b8	-0.15638244
1	0xbda27794	-0.07932964
2	0xbcec1d59	-0.028822588
3	0xbdf1891a	-0.11793728
4	0xbdc67975	-0.09691135
5	0xbd8a6c28	-0.067589104
6	0xbdcb04fc	-0.0991306
7	0xba347b4e	-0.0006884829
8	0xbe002d77	-0.12517343
9	0xbd98422e	-0.07434498
10	0xbcbb85b0	-0.022890896
11	0xbddb0fe9	-0.10696394
12	0xbd068b77	-0.032847848
13	0xbdc2df2a	-0.095152214
14	0xbd8cf02a	-0.06881745
15	0xbd6e8971	-0.058236543
16	0xbd841022	-0.064483896
17	0xbd94356c	-0.07236752
18	0xbe26ea5e	-0.16300341
19	0xbd1ba015	-0.037994463
20	0xbde28388	-0.11060244
21	0xbd92b9a0	-0.071643114
22	0xbdcc8fdb	-0.09988376
23	0xbc961469	-0.01832028
24	0xbddd92c5	-0.1081901
25	0xbdbecd9e	-0.09316562
26	0xbd1a9052	-0.03773529
27	0x3cbc7124	0.023003168
28	0xbdb21b6d	-0.08696637
29	0xbdae0799	-0.08497543
30	0xbd627e99	-0.055296514
31	0xbd952527	-0.07282477
32	0xbd0ef222	-0.034898885
33	0x3c199a8b	0.009375225
34	0xbd9e92a3	-0.077428125
35	0xbd8a9577	-0.067667894
36	0xbddc3536	-0.10752337
37	0xbdc07bc9	-0.0939861
38	0xbdd9b07d	-0.106293656
39	0xbdaf0514	-0.085458905
40	0xbdbf8d4c	-0.09353122
41	0xbd00a586	-0.031407855
42	0xbd7ebb07	-0.062190082
43	0xbdeff96e	-0.11717497
44	0xbe2237ab	-0.15841548
45	0xbdf96bf6	-0.12178795
46	0xbd0e5e11	-0.034757677
47	0xbd29d18d	-0.04145961
48	0xbd9e1b3d	-0.07720039
49	0xbd51b82c	-0.05120103
50	0xba372ba3	-0.00069873984
51	0xbdb6524a	-0.08902414
52	0xbdd3c2d1	-0.10339893
53	0xbd89663c	-0.06708953
54	0x3c58b4e4	0.013226721
55	0xbd8ab7b7	-0.06773322
56	0xbdd391d8	-0.10330552
57	0x3d3d41c4	0.046205297
58	0xbda50153	-0.08056893
59	0xbdc3a7a8	-0.09553462
60	0xbe06866a	-0.13137212
61	0xbd3f0f1f	-0.04664528
62	0xbd49eef5	-0.049300153
63	0xbd88cb69	-0.066794224

feature.9.running_mean f4 [64]
0	0x3dfc0e0b	0.12307366
1	0xbf57ba92	-0.8426906
2	0x3e953137	0.2913911
3	0x3ec7b071	0.39001802
4	0xbea26f12	-0.31725365
5	0xbe2ef289	-0.17084707
6	0xbf4b0195	-0.7929929
7	0x3e7501d8	0.23926485
8	0xbf568886	-0.8380207
9	0xbf93e231	-1.1553403
10	0xbb2c48e6	-0.0026288568
11	0xbe81319a	-0.25233155
12	0x3ecbdc82	0.39816672
13	0xbed543e0	-0.41653347
14	0xbd69aa1e	-0.057047002
15	0x3e1189b9	0.14212693
16	0xbf73a137	-0.9516787
17	0xbf1a56d4	-0.6028874
18	0x3f18fed9	0.59763867
19	0x3ed7f449	0.42178562
20	0x3ecb31c7	0.39686415
21	0xbf409162	-0.75221837
22	0x3f188d7b	0.5959088
23	0xbf936306	-1.1514595
24	0xbdd4ff6d	-0.10400281
25	0x3f8814b3	1.0631317
26	0xbe710263	-0.23536067
27	0xbf02a5ea	-0.51034415
28	0xbe679dc0	-0.2261877
29	0xbe30a9a4	-0.17252213
30	0xbf05c7cc	-0.5225799
31	0xbe9992b5	-0.2999474
32	0xbf30f432	-0.6912261
33	0xbf10bcf0	-0.56538296
34	0x3ecc71d7	0.39930603
35	0xbf81a497	-1.0128354
36	0xbe116727	-0.14199506
37	0x3f475668	0.7786622
38	0xbbc70a6d	-0.006074241
39	0x3e4e403f	0.20141695
40	0xbf21efe7	-0.63256687
41	0xbe8903f9	-0.26760843
42	0xbeca9123	-0.39563856
43	0xbdf9e22c	-0.12201342
44	0xbeaf4086	-0.34228915
45	0xbfac0e01	-1.3441774
46	0xbe635409	-0.22200026
47	0x3e9b6393	0.30349407
48	0x3f2e277e	0.6802901
49	0xbf2b6eae	-0.6696576
50	0xbf0fc49c	-0.5615938
51	0xbec1bc90	-0.37839174
52	0x3ee09ec3	0.43871126
53	0x3f236631	0.63827807
54	0xbe053928	-0.13010085
55	0xbf23cf34	-0.6398804
56	0xbf493f49	-0.7861219
57	0xbf9cc209	-1.2246715
58	0x3f76f0c9	0.9646116
59	0xbf16fb32	-0.58977044
60	0xbdaff0b1	-0.0859083
61	0xbddf4791	-0.10902322
62	0xbecba624	-0.39775193
63	0xbe3bb014	-0.18328887

feature.9.running_var f4 [64]
0	0x3ed4adeb	0.4153894
1	0x3ef1a314	0.4719473
2	0x3efb0ef7	0.49034855
3	0x3ec705a2	0.38871485
4	0x3ebf2986	0.37336367
5	0x3e84191e	0.25800413
6	0x3ea97ccc	0.33103025
7	0x3e7f9c4a	0.24961963
8	0x3f0eb756	0.557485
9	0x3ef701cc	0.48243558
10	0x3eafe442	0.34353834
11	0x3ea81320	0.3282709
12	0x3e3fa48a	0.1871511
13	0x3e87fa6b	0.2655824
14	0x3e72b072	0.23700121
15	0x3e64e6ec	0.22353715
16	0x3f1cf42f	0.61310095
17	0x3ed53c85	0.41647735
18	0x3ee69d5a	0.45041925
19	0x3e8f4a9f	0.2798662
20	0x3eb0f50f	0.34561965
21	0x3ef3a8ab	0.4758962
22	0x3e35673a	0.17715159
23	0x3f0c4791	0.547967
24	0x3eaa9609	0.33317593
25	0x3e40c887	0.18826495
26	0x3eb7988b	0.3585857
27	0x3ecfad8a	0.40562087
28	0x3ecffd2b	0.4062284
29	0x3e8323f3	0.25613365
30	0x3f0cb8ef	0.54969686
31	0x3e90d1ff	0.28285214
32	0x3edb054a	0.42777473
33	0x3e94f31f	0.29091737
34	0x3e2d4ced	0.16923876
35	0x3e86259a	0.26200563
36	0x3e7459da	0.238624
37	0x3eaba025	0.33520618
38	0x3f0248a7	0.5089211
39	0x3e90b733	0.2826477
40	0x3ee2c77a	0.44292814
41	0x3f243a15	0.64151126
42	0x3eb004c6	0.34378642
43	0x3e80a8df	0.25128838
44	0x3e53d956	0.20688376
45	0x3f2b6e4a	0.6696516
46	0x3ee33ff8	0.44384742
47	0x3e801c92	0.25021797
48	0x3e47834d	0.19483681
49	0x3e8412a1	0.25795463
50	0x3e936b78	0.2879293
51	0x3e701368	0.23444903
52	0x3ed9fcda	0.42575723
53	0x3f0c650e	0.548417
54	0x3e95c19a	0.2924927
55	0x3f453f5e	0.77049816
56	0x3efd9455	0.4952723
57	0x3e79829a	0.24366227
58	0x3e2fd229	0.17170013
59	0x3eeaa272	0.4582706
60	0x3ecd927b	0.40150818
61	0x3e63fb83	0.22263913
62	0x3e84e3b3	0.2595497
63	0x3e90acd5	0.2825686

feature.11.weight f4 [64, 64, 3]
0	0xbd4c1b8c	-0.04983096
1	0x3c953742	0.018214826
2	0x3d364c75	0.04450651
3	0xbbab0eca	-0.005220269
4	0x3b0ec4ab	0.0021784704
5	0xbda2d175	-0.07950107
6	0x3b255a4d	0.0025230825
7	0xbb9125ee	-0.0044295704
8	0x3d8366ef	0.064161174
9	0xbcd38dac	-0.02582439
10	0xbd7bd87c	-0.061485752
11	0xbdae2aa3	-0.08504226
12	0xbdb5c0e7	-0.08874684
13	0xbd45999d	-0.0482422
14	0x3d099c53	0.033596348
15	0xbb9a615c	-0.004711313
16	0x3c2a29cf	0.0103859445
17	0x3d4a2518	0.04935178
18	0x3d3c53d4	0.045978382
19	0x3ccb051c	0.02478271
20	0xbd4fd86e	-0.050743513
21	0xbd45fd3a	-0.0483372
22	0x3cb569dc	0.022145204
23	0x3d3fa95c	0.046792373
24	0x3d899b12	0.067190304
25	0x3cd3ea93	0.02586869
26	0xbd842e5a	-0.06454153
27	0x3e02988e	0.12753507
28	0x3d3d9b39	0.04629061
29	0x3d5e2c84	0.054241672
30	0x3d000c1c	0.03126155
31	0xbdbbfc71	-0.09179009
32	0xbde4ab9b	-0.11165544
33	0xbd267bcc	-0.040645406
34	0xbd8ee0a7	-0.06976443
35	0xbd26cc63	-0.040722262
36	0x3da31db1	0.079646476
37	0x3b8a1e9d	0.004215075
38	0xbcb0edd7	-0.021597786
39	0x3cd5c272	0.026093695
40	0xbd76e629	-0.06027809
41	0x3cf5a585	0.029986152
42	0x3d0dd5bb	0.034627657
43	0x3b3c96f4	0.0028776499
44	0x3d11994d	0.03554659
45	0xbbf45b57	-0.0074571776
46	0x3d8d33a9	0.06894619
47	0x3da9b2a4	0.08286026
48	0x3ceb4691	0.028720172
49	0xbc989b35	-0.018628696
50	0x3d2c6337	0.042086806
51	0xbe07c53d	-0.13258834
52	0xbc0c15a9	-0.008550086
53	0xbc88592e	-0.016644087
54	0xbd52c9c8	-0.051461965
55	0xbdffec70	-0.12496269
56	0xbcf04ad2	-0.029332552
57	0x3c88edd0	0.01671496
58	0xbd2052f5	-0.039141614
59	0xbd04bb6c	-0.032405302
60	0x3cf86446	0.030321252
61	0xbd12a477	-0.035801377
62	0x3dd1f909	0.10252578
63	0xbd7db1f0	-0.061937273
64	0x3d7eec32	0.062236972
65	0x3d0ccaaa	0.034372963
66	0x3cef2670	0.029193133
67	0xbcac4ed7	-0.021033688
68	0x3dbae573	0.09125795
69	0x3d1ca7e8	0.038246065
70	0x3d76f549	0.060292516
71	0x3cf5ab63	0.02998895
72	0x3c6d0751	0.014467076
73	0xbcfa7d15	-0.030577222
74	0xbe02f0de	-0.12787196
75	0xbca05bf7	-0.019575102
76	0x3d14482b	0.036201637
77	0x3d217e2a	0.03942696
78	0xbcfabceb	-0.030607661
79	0x3b23669b	0.0024932984
80	0x3ccfc654	0.025363125
81	0xbd4eb9e8	-0.050470263
82	0xbd2c321e	-0.042039983
83	0x3d4c80d9	0.049927566
84	0x3cb5805e	0.022155937
85	0xbd0a0c13	-0.03370292
86	0xbd45feb6	-0.048338614
87	0xbcab226c	-0.020890437
88	0x3d4b8589	0.049687896
89	0xbda997b0	-0.08280885
90	0x3da9a5ce	0.08283578
91	0xbcc3af72	-0.02388737
92	0xbd923109	-0.07138259
93	0xbccfb165	-0.025353143
94	0x3e099694	0.13436347
95	0x3d1492fc	0.036272988
96	0xbd89a181	-0.067202576
97	0xbc00f2b0	-0.007870361
98	0x3e08358e	0.1330168
99	0x3d53a214	0.05166824
100	0x3db992e7	0.090612225
101	0xba71c8aa	-0.00092233217
102	0x3dc543b6	0.096320555
103	0xbe25bde9	-0.16185726
104	0xbe0280d7	-0.12744461
105	0xbd6e11ea	-0.058122553
106	0x3c961416	0.018320125
107	0x3c40097b	0.01172101
108	0x3ddbf319	0.107397266
109	0x3b13757f	0.0022500453
110	0x3dd9684c	0.10615596
111	0x3d9f0ce0	0.077661276
112	0xbcb2f1dd	-0.021843845
113	0x3dbf2c06	0.09334569
114	0xbc46d328	-0.0121353045
115	0x3d44efed	0.048080374
116	0xbb55a343	-0.0032598532
117	0x3cae4542	0.02127326
118	0x3d982d63	0.07430532
119	0x3d4828e4	0.04886712
120	0xbd4e7cc0	-0.05041194
121	0x3d4d2d2f	0.05009192
122	0xbce0e467	-0.02745266
123	0x3c52ff23	0.012878212
124	0xbd1ba604	-0.03800012
125	0x3bac92c5	0.0052665197
126	0x3a69c3ef	0.0008917441
127	0xbd3cd721	-0.0461036
128	0xbd20e68d	-0.03928237
129	0xbd59e446	-0.053196214
130	0x3de22a6b	0.11043247
131	0x3db053c4	0.08609727
132	0xbda61ef1	-0.0811137
133	0x3d178cb8	0.036999434
134	0x3e116dfc	0.14202112
135	0xbd1a27fa	-0.03763578
136	0x3d2a0278	0.04150626
137	0x3d4b9040	0.049698114
138	0x3db71c58	0.08940953
139	0xbcd33477	-0.025781853
140	0xbddb159c	-0.10697481
141	0x3ca15f9f	0.019698916
142	0x3ce273ce	0.02764311
143	0x3c2b89ac	0.010469835
144	0xbcafd588	-0.021464124
145	0xbda3e749	-0.080030985
146	0xbdda21ae	-0.10650955
147	0xbc776b32	-0.015101241
148	0xbdb8959d	-0.090129115
149	0x3c9d1b14	0.01917795
150	0xbd91afdd	-0.071136214
151	0xbdf72be2	-0.12068917
152	0x3aab3833	0.0013063013
153	0x3b4f4332	0.0031625745
154	0x3ced71cd	0.028984929
155	0xbd06a4ee	-0.032872133
156	0xbdb70d0a	-0.08938034
157	0xbd41cdff	-0.047315594
158	0xbc5627cd	-0.013071013
159	0x3dd74c50	0.10512602
160	0x3d8780d2	0.066163674
161	0x3d5815e5	0.052755255
162	0xbd5b35bb	-0.05351804
163	0xbcd2449c	-0.025667481
164	0xbd284d91	-0.041089598
165	0x3d9757d8	0.07389802
166	0xbd0b666a	-0.034033217
167	0xbd2176d4	-0.039419964
168	0x3d18b023	0.037277352
169	0x3d8cea70	0.06880653
170	0x3d0f7a52	0.035028763
171	0xbc190edf	-0.009341924
172	0x3d61ccb5	0.055126864
173	0xbce937fc	-0.028469078
174	0xbdbdda7d	-0.09270189
175	0xbd1b7834	-0.03795643
176	0x3cca3932	0.024685476
177	0xbd134e75	-0.035963494
178	0xbd92f1ee	-0.07175051
179	0xbda3c635	-0.07996789
180	0xbd873b7d	-0.06603143
181	0xbd80bb51	-0.06285728
182	0x3c93f9b9	0.018063413
183	0xbe0e7ab5	-0.13913997
184	0xbd7b8964	-0.061410323
185	0x3d0748da	0.03302846
186	0x3d5179c1	0.051141504
187	0xbcb6fcbd	-0.022337312
188	0xbd6648e0	-0.056221843
189	0xbddd690b	-0.10811051
190	0xbd9d1653	-0.07670274
191	0xbd2cb9e6	-0.042169474
192	0x3cd1b63d	0.025599593
193	0xbd75e682	-0.060034283
194	0xbcbbff34	-0.022948839
195	0x3db73899	0.08946342
196	0xbcbe58ca	-0.023235697
197	0x3a82ccb0	0.0009979215
198	0x3cc66a3c	0.024220578
199	0xbda3fe56	-0.08007495
200	0xbd15ea02	-0.03660012
201	0xbcc8fbd0	-0.024534136
202	0x3d2c555d	0.042073596
203	0xbca4744f	-0.020074992
204	0xbcb98f75	-0.022651413
205	0xbdf2a16b	-0.11847194
206	0xbd3dab08	-0.046305686
207	0xbd8fab03	-0.0701504
208	0x3bf92caf	0.0076042037
209	0xbd1cbc0e	-0.03826528
210	0xbd28e732	-0.04123611
211	0x3d511a87	0.05105069
212	0xbdc174fc	-0.09446141
213	0x3c653cf5	0.013991584
214	0xbbc016cc	-0.0058620926
215	0x3b521254	0.0032054381
216	0x3ce5f134	0.028069116
217	0x3d27543d	0.04085182
218	0x3ca58e8e	0.020209577
219	0xbc2efeda	-0.010680879
220	0xbdc20d4f	-0.09475195
221	0x3b87eed5	0.004148344
222	0x3d9988b5	0.07496778
223	0xbd3716fa	-0.044699647
224	0x3ddb3c56	0.107048675
225	0xbda5dbda	-0.08098574
226	0xbe011c40	-0.12608433
227	0xbc4418ee	-0.011968834
228	0x3ca6dca8	0.020368889
229	0x3d580dff	0.052747723
230	0x3cd8e739	0.026477443
231	0xbd7bf6b2	-0.061514564
232	0xbd632f40	-0.055464983
233	0xbcd99953	-0.026562368
234	0xbc2a48bc	-0.010393318
235	0x3c013b53	0.007887679
236	0x3dbc6bdd	0.09200261
237	0x3c9875a4	0.018610783
238	0x3b96e74a	0.0046052085
239	0x3ca024e6	0.019548845
240	0x3da75b0b	0.08171662
241	0xbda2b353	-0.0794436
242	0xbca587d5	-0.020206371
243	0x3d14ad12	0.036297865
244	0x3d529bd6	0.051418148
245	0xbda3f17f	-0.08005046
246	0x3c191efb	0.009345765
247	0xbdaee3e7	-0.08539563
248	0xbd07ab99	-0.033122633
249	0x3dadda1d	0.084888674
250	0x3cba2989	0.022724884
251	0x3cdc9525	0.026926586
252	0x3db78ef0	0.0896281
253	0xbd884ed0	-0.06655657
254	0xbdb9ae20	-0.09066415
255	0xbd358e19	-0.044324968

feature.11.bias f4 [64]
0	0xbd5f4dd3	-0.05451758
1	0x3cb3c377	0.02194379
2	0x3d1968aa	0.03745333
3	0x3c8b304b	0.016990801
4	0x3dd048fd	0.101701714
5	0xbd0b4178	-0.033997983
6	0x3ca2789e	0.019832905
7	0xbd9916c7	-0.074750476
8	0x3d33e3f0	0.04391855
9	0x3ca2ee45	0.019889006
10	0x3d00fbed	0.031490255
11	0x3ccda139	0.025101291
12	0x3d7de51d	0.061986078
13	0xbdf52f9c	-0.119719714
14	0xbc2abc71	-0.0104209045
15	0x3d9b0b47	0.0757051
16	0xbc8c9a1b	-0.017163327
17	0x3cc65f99	0.024215506
18	0x3d1f6c6f	0.03892177
19	0x3d014cd1	0.0315674
20	0xbd54cead	-0.051954914
21	0xbcc8e789	-0.024524467
22	0x3ca6e649	0.02037348
23	0x3dc02ea1	0.09383894
24	0x3dd009fc	0.10158154
25	0xbc9c7109	-0.019096868
26	0x3d7e4acc	0.06208305
27	0xbd745748	-0.05965355
28	0x3d105a2e	0.035242252
29	0xbb6bee25	-0.00360001
30	0x3c16ab29	0.009196081
31	0xbd0473f4	-0.032337144
32	0x3d85485a	0.065079406
33	0xbd649603	-0.055807125
34	0x3d3611a6	0.044450425
35	0xbccb562e	-0.024821367
36	0x3d423608	0.04741481
37	0x3d3fd895	0.046837408
38	0x3d40881d	0.047004808
39	0x3d0369fd	0.0320835
40	0x3d5ba9e5	0.05362882
41	0x3b98555e	0.0046488484
42	0xbd2692a2	-0.040667184
43	0xbba1ff68	-0.004943777
44	0x3cbb2293	0.022843635
45	0x3b96f6c1	0.004607052
46	0x3cfe0bc3	0.031011468
47	0xbc5f07eb	-0.013612728
48	0xbd331b4f	-0.043727215
49	0x3c566881	0.013086439
50	0x3d3334bf	0.043751474
51	0xbc7f9580	-0.015599608
52	0xbbb077eb	-0.005385389
53	0xbdca10c0	-0.09866476
54	0xbccd52c4	-0.02506388
55	0xbd9c411d	-0.07629607
56	0xbc93d2a6	-0.018044781
57	0xbd079769	-0.03310338
58	0xbcaa5847	-0.020794047
59	0x3c813f7e	0.015777346
60	0xbd60e17b	-0.054902535
61	0xbd3c5230	-0.045976818
62	0x3d09fc66	0.03368797
63	0x3d90a1e8	0.07062131

feature.12.weight f4 [64]
0	0x3f7daca8	0.9909158
1	0x3f83aaef	1.028654
2	0x3f86cebb	1.0531839
3	0x3f6cfe6c	0.92575717
4	0x3f8647f1	1.0490705
5	0x3f7eb06c	0.9948795
6	0x3f769b36	0.96330583
7	0x3f7d53e3	0.98956126
8	0x3f8b7001	1.0893556
9	0x3f828605	1.019715
10	0x3f8a7c24	1.0819135
11	0x3f737f64	0.9511626
12	0x3f80c468	1.0059938
13	0x3f8266a7	1.0187577
14	0x3f78b7f1	0.9715567
15	0x3f7f0358	0.9961448
16	0x3f82edd6	1.0228832
17	0x3f786cfa	0.97041285
18	0x3f7460bb	0.954601
19	0x3f86fb54	1.0545449
20	0x3f847fae	1.0351465
21	0x3f744fda	0.95434344
22	0x3f83f03c	1.0307689
23	0x3f791f65	0.9731353
24	0x3f80b9cd	1.0056702
25	0x3f81cf07	1.0141305
26	0x3f6efe7d	0.9335707
27	0x3f7eef6d	0.99584085
28	0x3f78d7a7	0.9720406
29	0x3f8294ea	1.0201695
30	0x3f80c03b	1.0058664
31	0x3f811743	1.0085224
32	0x3f792a45	0.97330123
33	0x3f83c8db	1.0295671
34	0x3f7a03f5	0.9766229
35	0x3f850a40	1.0393753
36	0x3f6dc26f	0.9287481
37	0x3f81a5d4	1.0128732
38	0x3f77eaa3	0.968424
39	0x3f6bfc15	0.9218152
40	0x3f821901	1.016388
41	0x3f7bcdd9	0.98360974
42	0x3f835c73	1.0262588
43	0x3f746764	0.9547026
44	0x3f855ef3	1.0419601
45	0x3f7b91aa	0.9826914
46	0x3f84669c	1.0343814
47	0x3f7e34fc	0.992996
48	0x3f71e30f	0.9448709
49	0x3f6fc2f3	0.93656844
50	0x3f71e532	0.9449035
51	0x3f69e017	0.9135756
52	0x3f6e21dd	0.9302042
53	0x3f83cb3d	1.0296398
54	0x3f77daa6	0.96818006
55	0x3f83e498	1.0304136
56	0x3f822740	1.0168228
57	0x3f7b63bf	0.98199075
58	0x3f807baf	1.0037745
59	0x3f81f864	1.0153928
60	0x3f75f558	0.9607749
61	0x3f7e6ad8	0.9938178
62	0x3f81cbb2	1.0140288
63	0x3f80c9aa	1.0061543

feature.12.bias f4 [64]
0	0xbd614efd	-0.05500697
1	0xbe473e9d	-0.19457479
2	0xbe46c1d9	-0.19409885
3	0xbe0c3578	-0.13692272
4	0x3d618296	0.055056177
5	0xbddbe80e	-0.1073762
6	0xbdc0a995	-0.09407345
7	0xbdd49d3e	-0.10381554
8	0xbd85418c	-0.06506643
9	0xbd29df6e	-0.041472845
10	0xbbfff8e3	-0.007811652
11	0xbe425884	-0.18979079
12	0xbe1c9ea0	-0.15294886
13	0xbda96c1c	-0.08272573
14	0xbd5e59d9	-0.054284904
15	0xbd484439	-0.048893187
16	0xbd92eccb	-0.07174071
17	0xbd06ba23	-0.032892358
18	0xbdeca3eb	-0.11554702
19	0xbe07b728	-0.13253462
20	0xbe0399af	-0.12851594
21	0xbdbaba63	-0.09117582
22	0x3dc97b29	0.09837944
23	0xbdca17d2	-0.098678246
24	0xbd908249	-0.070561
25	0xbe147b3b	-0.14500134
26	0xbda8dfa5	-0.08245782
27	0xbdeefa8c	-0.11668882
28	0xbd70625d	-0.058687557
29	0xbda38128	-0.07983619
30	0xbe1a54dc	-0.15071434
31	0xbe075b7b	-0.13218491
32	0xbe0f6282	-0.14002421
33	0xbdef94ae	-0.1169828
34	0xbe028d8a	-0.12749305
35	0xbdf55008	-0.119781554
36	0xbdb9e915	-0.0907766
37	0xbdb26ef6	-0.0871257
38	0xbddf5241	-0.109043606
39	0xbe0e6a95	-0.13907845
40	0x3c8542b6	0.016267162
41	0xbdf03c82	-0.11730291
42	0xbde8b0f5	-0.11361877
43	0xbdc0c325	-0.09412221
44	0xbd76be65	-0.060240168
45	0xbd995f09	-0.0748883
46	0xbd0643ba	-0.032779433
47	0xbd63c3aa	-0.05560652
48	0xbe11a564	-0.14223248
49	0xbd960473	-0.07325067
50	0xbdc37f2f	-0.09545743
51	0xbe304ed1	-0.17217566
52	0xbdf578a5	-0.11985902
53	0xbd833461	-0.06406475
54	0xbdf636a0	-0.12022138
55	0xbde11d33	-0.109918974
56	0xbde7a210	-0.11310208
57	0xbe05dfcc	-0.13073653
58	0xbe222870	-0.15835738
59	0xbdb0b3d1	-0.08628047
60	0xbdfced80	-0.12349987
61	0xbc995b64	-0.018720336
62	0xbd1b816d	-0.037965227
63	0xbdbb5150	-0.091463685

feature.12.running_mean f4 [64]
0	0xbe81a1b4	-0.25318682
1	0xbebb12e3	-0.36537847
2	0x3d3b91a6	0.045793198
3	0x3f30f642	0.6912576
4	0xbe7688e5	-0.24075659
5	0xbe3f1b23	-0.18662696
6	0x3d42b936	0.047539912
7	0xbee00fcd	-0.43762055
8	0xbe9fc8c4	-0.3120786
9	0xbe162773	-0.14663486
10	0xbf7d3c22	-0.9891988
11	0xbd832648	-0.06403786
12	0xbe85d820	-0.26141453
13	0xbf33a028	-0.70166254
14	0xbf084ae3	-0.5323927
15	0xbf137de1	-0.5761395
16	0xbdec9160	-0.115511656
17	0xbeeb61e6	-0.45973128
18	0x3e932e3a	0.28746206
19	0xbf1a4d21	-0.6027394
20	0x3e846892	0.2586103
21	0xbdd623a1	-0.104560144
22	0xbf078b4a	-0.52946913
23	0xbf5052ca	-0.81376326
24	0x3e957b12	0.29195458
25	0x3ea46ca3	0.32114133
26	0xbd8fbc01	-0.07018281
27	0xbe0d5db5	-0.13805278
28	0xbf0f1dfc	-0.5590513
29	0xbf9635ec	-1.1735206
30	0xbc5f674f	-0.0136354705
31	0xbf7d11a9	-0.9885507
32	0xbf8ef464	-1.1168332
33	0xbec671ed	-0.38758793
34	0xbe8b124b	-0.27162394
35	0xbf31dd46	-0.6947826
36	0xbf0cde6f	-0.55026907
37	0xbe39ab53	-0.18131761
38	0xbd835397	-0.06412428
39	0xbe9a8449	-0.3017905
40	0xbe416d86	-0.18889436
41	0xbe6d8d25	-0.23198374
42	0x3e90cc49	0.28280857
43	0x3e044a62	0.12919
44	0x3eb4a8a2	0.35284907
45	0xbf7ce25f	-0.98782915
46	0xbf0ec04d	-0.5576218
47	0xbe64c576	-0.2234095
48	0xbdc352b8	-0.09537262
49	0xbe978c0a	-0.2959903
50	0xbf308d50	-0.68965626
51	0x3ed47525	0.41495624
52	0xbf7561c3	-0.958523
53	0x3e4c08f4	0.1992529
54	0xbeab75aa	-0.33488208
55	0xbecdaa9b	-0.40169224
56	0xbe65d7f2	-0.22445658
57	0xbee58e1d	-0.44834986
58	0x3f01c26a	0.5068728
59	0xbf12408a	-0.5712973
60	0xbe29757f	-0.16548727
61	0xbf344d28	-0.7043023
62	0x3dc910bc	0.09817645
63	0xbe90c6ef	-0.28276774

feature.12.running_var f4 [64]
0	0x3ebf6eb1	0.37389138
1	0x3ee497b3	0.44646987
2	0x3e8c4244	0.27394307
3	0x3ecee0d7	0.40405914
4	0x3f4ccb1f	0.7999744
5	0x3efb7ef1	0.49120286
6	0x3eca7ab0	0.39546728
7	0x3ed59862	0.4171782
8	0x3e8e89ab	0.27839407
9	0x3eee2153	0.465098
10	0x3f123a2f	0.5712003
11	0x3e844002	0.25830084
12	0x3e90ebe0	0.28304958
13	0x3f0c50c4	0.5481074
14	0x3e92b400	0.28652954
15	0x3ed0d5ab	0.40788016
16	0x3ed5e53e	0.4177646
17	0x3ec1238a	0.37722427
18	0x3edb78d3	0.4286562
19	0x3ea94db1	0.33067086
20	0x3e9f1b91	0.3107572
21	0x3eca778a	0.39544326
22	0x3eceb09a	0.4036911
23	0x3f03bae3	0.5145704
24	0x3ed78891	0.4209638
25	0x3ee83491	0.45352605
26	0x3f18f676	0.5975107
27	0x3ee5bc42	0.44870192
28	0x3f3fe824	0.74963593
29	0x3e865a32	0.2624069
30	0x3f14e09f	0.58155245
31	0x3f174ac5	0.59098464
32	0x3ebb0c05	0.36532608
33	0x3eb953d4	0.36196768
34	0x3ed53003	0.41638193
35	0x3e9f9a64	0.31172478
36	0x3f217b0c	0.6307838
37	0x3eace70c	0.33770025
38	0x3f12546b	0.5716006
39	0x3f04c1df	0.51858324
40	0x3f01f785	0.5076831
41	0x3f06b1be	0.52614963
42	0x3eb80fef	0.35949656
43	0x3ef77baf	0.4833655
44	0x3edd74f4	0.4325329
45	0x3eca008a	0.39453536
46	0x3eb47843	0.35248002
47	0x3eae7b95	0.3407866
48	0x3f11f3ea	0.5701281
49	0x3f518e9b	0.81858224
50	0x3eeacacf	0.45857856
51	0x3f0e003b	0.554691
52	0x3ebf05d7	0.37309143
53	0x3eae79c8	0.34077287
54	0x3ed24cbd	0.41074172
55	0x3e958dc8	0.29209733
56	0x3ec7ff03	0.39061746
57	0x3ef7ad19	0.4837425
58	0x3eb489fe	0.3526153
59	0x3f38e40d	0.7222298
60	0x3ee076eb	0.43840727
61	0x3f2c3126	0.67262495
62	0x3ec3d587	0.38248846
63	0x3ee7b3a4	0.45254242
