model_files/alexnet_1d_ptbxl_k.onnx (onnx, 150950 bytes, 22 tensors)

model/dense/MatMul/ReadVariableOp:0 f4 [64, 5]
000000 3e 22 5f 3d 19 ff dd be 06 2f 9c 3d b5 ea ad 3d
       0.054476015 -0.43358687 0.076261565 0.084920324
000010 a2 38 4d bd 28 5c 64 be fa 6e 32 3c be 6f 88 3e
       -0.050102837 -0.2230078 0.010890717 0.26647753
000020 e6 fe ae bd 04 49 c7 be 36 e7 9c bd 2e 82 b7 3e
       -0.08544712 -0.38922894 -0.076612875 0.35841507
000030 45 22 47 be f2 07 c6 3d f4 33 5a be a4 d9 6b be
       -0.19446667 0.09669484 -0.21308881 -0.23032242
000040 4d 97 b0 be ae 00 90 bd 3a 19 57 be 44 92 6d 3e
       -0.34490433 -0.0703138 -0.21005717 0.23200327
000050 61 02 b8 3e 76 b2 3a 3e d1 28 c9 be 17 92 89 be
       0.35939315 0.1823214 -0.39288953 -0.2686927
000060 4e 7c 3b 3e 73 2a 21 be 6c 74 94 be 39 be 97 bd
       0.18309137 -0.1573885 -0.28995073 -0.07409329
000070 2f eb 84 3e 79 bc 9e be de 3b 94 be db 4e 01 3e
       0.2596068 -0.31003168 -0.28951925 0.12627737
000080 fb 8f 3d be 91 9b 5e 3e 29 a2 a1 be 73 8f e5 3d
       -0.18511955 0.21739031 -0.3156903 0.112090014
000090 e8 82 d8 be 91 29 b6 bd fc 3b c6 be 1e 38 73 3e
       -0.42287374 -0.08894647 -0.3871764 0.23751876
0000a0 09 07 11 be 52 a8 31 3d 29 c6 a8 be 60 da 40 bc
       -0.1416284 0.043373413 -0.32963684 -0.011770815
0000b0 d7 87 9e be 7a a5 81 be f1 66 6c 3e 36 87 84 3e
       -0.30963013 -0.2532156 0.23086144 0.25884408
0000c0 a1 4a 14 be e4 d5 d9 be 93 6f a4 be 7c db 3c be
       -0.14481594 -0.42545998 -0.32116374 -0.18443102
0000d0 4a dd 3d be c7 c1 13 bd d0 d6 8f be b8 3b 1b 3d
       -0.18541446 -0.036073472 -0.28093576 0.03789875
0000e0 22 bb 51 be e0 72 b4 3e f0 fc 89 be b7 5a 6a 3e
       -0.20481542 0.35243893 -0.26950788 0.22886167
0000f0 46 d8 b0 3d 54 98 7e be 31 4a 9a 3e 2b 47 8a 3d
       0.08635001 -0.24862796 0.3013473 0.067518555
000100 31 4d 8e be 1c 16 b5 3e be 94 29 3e d2 45 43 3e
       -0.27793267 0.3536843 0.16560647 0.19069603
000110 75 22 79 bd 27 00 7f be a4 33 c3 bd 75 3a ee be
       -0.060823876 -0.24902402 -0.09531334 -0.46528974
000120 2b 41 7d be 15 df 51 3e 52 74 44 3e 02 ff 4b be
       -0.24731891 0.20495255 0.19184998 -0.19921497
000130 e5 55 6d 3d c2 5f 9f be 0d a2 0c bd 01 4d 54 3e
       0.057943244 -0.31127745 -0.03433423 0.207325
000140 1e bd 8e be c8 97 ab 3e 12 47 e7 3d 21 9c 6d be
       -0.2787866 0.33514237 0.112928525 -0.2320409
000150 02 37 df bd ab 4f 5e bd 76 4d eb be 01 6a a4 3d
       -0.10899164 -0.054275196 -0.45957536 0.08028031
000160 4f 9d 31 3d 31 7a 18 bd 85 b2 9f 3e 15 22 a9 be
       0.04336291 -0.037225906 0.31190887 -0.33033815
000170 ff 17 f7 3d 7e 16 0f 3e 8a ed 57 3e f1 6b 06 be
       0.12065124 0.13973424 0.21086708 -0.13127114
000180 fa 3a 82 bd dd 72 b5 3d f5 0e 72 3e 51 75 11 be
       -0.06358905 0.08859799 0.23638518 -0.14204909
000190 18 ef 09 be 52 f6 22 3d 7e 6e 66 3e ce e4 81 bd
       -0.13470113 0.03978569 0.22503087 -0.06342469
0001a0 2c 70 80 be 81 91 71 be 4a ac 28 be 94 1b 65 3e
       -0.2508558 -0.23590662 -0.16471973 0.22373801
0001b0 38 fc 65 3e ff bf 82 3d 27 29 d5 3d 87 d3 f2 3c
       0.22459495 0.063842766 0.1040824 0.02964188
0001c0 0a 06 52 3e ef 3d 59 be e2 4f 8a 3e 42 6c b7 3e
       0.20510116 -0.21215032 0.2701407 0.35824782
0001d0 29 43 8b be 99 0e 94 be 5f e7 b6 be 52 e0 1f bb
       -0.27199677 -0.28917387 -0.35723397 -0.002439518
0001e0 28 2f 9c 3e d1 dc 64 be d2 76 98 bd bb 3c 2b 3e
       0.30504727 -0.2234986 -0.07444538 0.16722386
0001f0 ee dd 17 3e 86 6e 6a be 3a 61 21 be 90 48 b3 3c
       0.14830753 -0.22893724 -0.15759745 0.021885186
000200 99 ad a1 bc 8a 54 80 3e 44 58 b4 3e 35 66 40 3e
       -0.019736098 0.25064498 0.3522359 0.18788989
000210 7b c9 10 3e 82 83 ba bd b2 d7 88 be 32 52 87 3e
       0.14139359 -0.091071144 -0.26727062 0.26429898
000220 5e 3c c0 be 71 f3 86 3e cf 59 8e be 4f 13 d3 bd
       -0.37546057 0.26357606 -0.27802894 -0.10306417
000230 0d b2 2c 3e 75 48 86 3d 18 e6 80 be 9c af 9c 3d
       0.16864796 0.06556789 -0.25175548 0.07650682
000240 a9 19 c6 be 1d e7 b4 3e c1 69 8a 3e ad 10 da be
       -0.38691452 0.35332575 0.2703381 -0.42590848
000250 54 ff fd 3d 46 70 3b be 32 c5 97 bd 0d 2f 72 bd
       0.124022156 -0.18304548 -0.07410659 -0.059126902
000260 41 3f 21 be 69 24 00 3e 11 4f 90 be 0e 62 14 be
       -0.15746786 0.1251389 -0.28185323 -0.1449053
000270 cd 81 d3 3d 92 59 62 be 49 e7 bc 3d f3 19 97 3e
       0.10327492 -0.22104481 0.09223802 0.29511985
000280 80 b4 3e 3e f4 c5 61 3d 38 9e 54 3e 68 c7 b6 be
       0.18623543 0.055120423 0.2076348 -0.3569901
000290 f0 bf a0 be 6e e8 9f 3e f2 44 8c be 85 b3 9f bd
       -0.31396437 0.31232017 -0.2739635 -0.077979125
0002a0 fc b8 01 3d d3 ed a1 bd a7 31 84 3d 82 be 77 be
       0.031670555 -0.079066895 0.06454783 -0.24193767
0002b0 8b 40 9f 3d d4 96 aa 3e 8f a6 88 3e 7d 5e 1b 3e
       0.077759825 0.33318198 0.26689574 0.15172763
0002c0 be 4d b6 3e 7c bf 2d bd 01 3f cf be 47 e1 35 be
       0.35606188 -0.04241894 -0.40477756 -0.17761718
0002d0 66 a9 54 be b5 bd 99 be 4d 86 94 be c5 66 07 3e
       -0.20767745 -0.30027547 -0.29008713 0.13222797
0002e0 c0 6e 69 3e dd cb 7c be 45 f5 cd be 09 a1 59 be
       0.22796154 -0.24687143 -0.40226188 -0.21252836
0002f0 c0 09 9d 3e 5f f7 93 be 5e 4d e9 bc bf 09 9d 3e
       0.306715 -0.28899667 -0.028479274 0.30671498
000300 54 65 cc be 1e 4a 9f 3e 42 ba 62 be 78 d4 db 3d
       -0.39921057 0.31111234 -0.22141364 0.107338846
000310 c2 b3 39 3e e6 ee 05 be cb 09 b3 bd 9e 24 a0 bd
       0.18134978 -0.13079414 -0.08742102 -0.07819484
000320 88 c1 00 be 78 ed 7b be 3f 78 bb be 63 57 b7 bd
       -0.12573826 -0.24602306 -0.36615178 -0.089522146
000330 69 2f 1e 3e 32 09 2f 3e fd 43 b4 3e f6 8e 92 3e
       0.15447773 0.17093351 0.3520812 0.28624696
000340 dc ad 98 be ff ea 3a be 5e 1c 09 3e df 83 83 be
       -0.29820144 -0.18253706 0.13389727 -0.25686547
000350 6d 89 ac be 18 19 73 bc 3e 22 e4 bc c6 81 60 3e
       -0.33698598 -0.014837526 -0.02784836 0.21924505
000360 17 d2 ed be 9c d3 51 3c bd 4a 84 3e 34 91 52 3e
       -0.46449348 0.012806799 0.2583827 0.20563203
000370 f9 1d bf 3e c2 99 dc bd 2c 54 52 3d 99 c8 14 3e
       0.37327555 -0.107715145 0.051349804 0.14529647
000380 27 0a d9 be 3f b2 80 3e cc a9 b8 3e e5 ee 35 be
       -0.42390558 0.2513599 0.36067045 -0.17766912
000390 4c d4 a0 be 52 34 0f 3e bc 75 c7 bd 79 1d cb be
       -0.3141197 0.13984802 -0.09739253 -0.39670923
0003a0 73 b2 2a be 6e 8e aa be f2 42 6a 3e 58 ef 88 3e
       -0.16669635 -0.3331179 0.228771 0.26745105
0003b0 fd 3e 5b be 42 f9 4c 3e cc 27 c0 bd 4c 2d 72 3d
       -0.21410747 0.2001696 -0.09382591 0.05912523
0003c0 55 ef bd 3b d5 a9 1f 3e 1c 7c 84 be ef fe 95 be
       0.005796353 0.1559213 -0.25875938 -0.2929606
0003d0 8a aa 13 bd 09 cf 97 bd 55 25 f7 be da 53 51 bd
       -0.03605131 -0.07412536 -0.4827067 -0.051105358
0003e0 56 8e ab bd 17 9c 23 3e 61 5d cc 3c 54 0f 89 3e
       -0.08376758 0.15977512 0.02494687 0.26769507
0003f0 9c b6 f2 be 8d 81 89 3e 7a 5b 79 3e 27 23 b2 be
       -0.47404945 0.26856652 0.24351302 -0.34792444

model/dense/BiasAdd/ReadVariableOp:0 f4 [5]
000000 a1 f4 58 3d a3 a6 da bb 5e 2b 58 bd 3f 98 3d bd
       0.05296767 -0.0066726967 -0.052775733 -0.04628777
000010 ab 82 09 bd
       -0.03357188

model/conv1d_4/Conv1D/ExpandDims_1:0 f4 [64, 64, 1, 3]
000000 42 f0 3b 3e 49 37 09 3e 67 0a 18 3e 91 f3 c6 bd
       0.1835337 0.13399996 0.14847718 -0.09714425
000010 4d 5a 61 bd 7f 94 21 be 45 ea 19 bd 0a 6c 1a 3e
       -0.05501776 -0.15779303 -0.037576932 0.15080276
000020 89 47 b9 3d 69 1c b3 bd a8 f7 45 3d 63 ef f5 3d
       0.090468474 -0.08745653 0.048331887 0.1200855
000030 a5 2d 02 bd e0 3a 30 bd 5d 9a 2d 3c 92 b3 dc 3d
       -0.03178181 -0.043024898 0.010595885 0.10776438
000040 de 7d 86 3c 89 5b 81 3d 99 e6 f7 3d da 70 aa 3d
       0.01641744 0.06316287 0.1210453 0.08322306
000050 1f fa db 3d b2 1b 7f bd 1c 87 c5 3a 97 95 87 3d
       0.10741066 -0.06228227 0.0015070173 0.06620329
000060 22 2e 52 be e6 77 0c be 04 a1 16 3d 80 b4 36 bc
       -0.20525411 -0.13717613 0.03677465 -0.011151433
000070 4e 5d e5 3c 57 35 b5 bd 6d f4 e1 3d 3a 6e 72 bb
       0.027998593 -0.088480644 0.11032949 -0.003699197
000080 f3 43 49 3c 3e f5 78 ba 41 61 8c bc d9 86 81 3d
       0.012284267 -0.0009496993 -0.017136218 0.06324548
000090 3d 51 29 3d 47 ed a5 bb 8a 4e 68 3d f0 49 c1 3d
       0.04133724 -0.005063686 0.056715526 0.094379306
0000a0 2c 90 c6 3c 2e df 9f bc d1 ed 14 be 8a 59 f3 bc
       0.024238668 -0.0195156 -0.14543845 -0.029705781
0000b0 54 06 37 be fa 33 94 bd dc c0 09 bb ec e6 0a 3e
       -0.17873508 -0.07236476 -0.0021019494 0.13564652
0000c0 45 89 53 3d ae 36 6c 3d 73 83 3b 3d b1 3a 40 be
       0.051644582 0.057669334 0.045779657 -0.18772389
0000d0 36 3a 2e be 56 79 98 bd 20 7c fb 3c 5b c8 86 bd
       -0.17014393 -0.07445018 0.030698836 -0.065811835
0000e0 52 3a 8b 3d 0e 21 e2 3d fa 0e 36 3d 80 5e 1f be
       0.06798233 0.11041461 0.044447877 -0.15563393
0000f0 7b 56 b5 bd 24 a5 70 3d a4 23 07 bc b9 36 3f 3e
       -0.088543855 0.05875124 -0.0082482435 0.18673219
000100 51 7c 67 3e 1f a5 2c 3c 2f a7 01 3e f6 34 63 3d
       0.22606017 0.010537415 0.12661432 0.05547043
000110 fc fc 03 3d 5a 30 a6 bb e0 43 da 3d be c4 b6 bd
       0.032223687 -0.005071682 0.106574774 -0.08924244
000120 09 bc a0 bc fb d3 77 3d a7 35 07 3e 97 bb 94 bc
       -0.019620912 0.060504895 0.1320406 -0.018155856
000130 4c 77 91 bd 77 e3 6d bd 34 5e 25 bd 8c 70 b5 3d
       -0.07102832 -0.058078256 -0.040373042 0.08859357
000140 98 36 ab 3d e3 46 48 3e fe 9a 3f ba 8a 91 6f 3d
       0.08360022 0.19558291 -0.00073091674 0.058488406
000150 cf a9 6d bd c5 bd b1 bd a2 88 82 3d 33 6e d0 3d
       -0.05802327 -0.08678774 0.06373717 0.10177269
000160 b5 f5 dd 3d 6f f6 69 3d ac 70 b8 3a dc ea a3 bd
       0.108378805 0.057119783 0.0014071665 -0.0800378
000170 f2 76 30 3d cc 59 ed 3c b9 49 92 3d 6c 2e 38 3c
       0.043082185 0.028973483 0.07142968 0.011241537
000180 0c 91 47 bc d5 56 68 bc fc 1f 75 3d c6 50 59 3d
       -0.012180578 -0.014180859 0.059844956 0.053055547
000190 31 3d 76 bd 81 e9 d5 bd 23 37 07 bd 03 6e 7b 3d
       -0.06011695 -0.10444928 -0.033011567 0.061384212
0001a0 c8 9f 85 bd 9e 92 aa bd 54 9f 94 bd db 55 6f 3d
       -0.065246165 -0.08328746 -0.07256952 0.058431488
0001b0 1b 32 83 3d 75 47 00 be 1b 4f 97 3c ce 04 39 bd
       0.06406041 -0.12527259 0.018470338 -0.045170598
0001c0 02 69 ee 3d 5f 24 e1 bc d1 2d a3 bd 48 66 0d be
       0.116411224 -0.027483163 -0.07967723 -0.13808548
0001d0 fc e1 2a be 84 65 8e bd 14 f5 2d 3d 27 1b d1 3d
       -0.16687769 -0.06952956 0.042470053 0.10210257
0001e0 cd 95 e2 bc d0 0b f8 3d e4 47 ed 3d 72 7d ce 3c
       -0.027659321 0.12111628 0.11585978 0.025206301
0001f0 eb 7b 34 3d b2 4b 6b 3d 6b 8e f9 3d 58 42 9d bd
       0.04406349 0.057445236 0.12185367 -0.0767867
000200 27 bf 81 3d ba a4 46 3d 4c aa 38 3e 0d 26 14 3e
       0.063352875 0.04849694 0.18033713 0.1446764
000210 60 62 13 3d 1f 42 29 3a d1 f1 81 bb f4 53 11 bc
       0.03598249 0.0006456691 -0.0039655943 -0.008870114
000220 2a f1 1a bd 5c 35 08 3e 6b 19 a3 bd bf 95 8c bd
       -0.03782765 0.13301605 -0.079638325 -0.06864499
000230 bd 45 e6 bc d6 14 9c 3d eb cf ba bd dc a6 9a 3d
       -0.028109426 0.07621162 -0.091216885 0.07551357
000240 14 61 d8 bd 93 b7 25 be 7f 41 26 bd c7 a2 dc 3d
       -0.10565391 -0.1618331 -0.040589806 0.10773235
000250 2b c5 3d 3d 64 55 4d 3d 60 2e 1d 3d 3a 25 42 be
       0.046330612 0.050130263 0.038374305 -0.18959513
000260 2a 15 a0 bc 54 71 67 3d b8 34 c8 bc ab 16 ce bc
       -0.019541342 0.056504562 -0.0244392 -0.025157293
000270 fd 59 50 3d 25 e0 97 3d 8f 9d b6 3c 91 4a ff bd
       0.05086707 0.07415799 0.022291927 -0.12465394
000280 55 d5 d4 bd 36 5d 58 bd cd 34 23 3e de 92 a7 bc
       -0.10392252 -0.052823268 0.1593811 -0.020455774
000290 7d 95 9e 3d 56 1b 10 3c b9 ef 01 3c 15 74 fa 3d
       0.077433564 0.00879558 0.0079306895 0.12229172
0002a0 27 40 9c 3c 7e 56 41 3d e6 f4 01 3e 65 3a e6 3d
       0.019073559 0.047201626 0.12691078 0.112416066
0002b0 ea 6e 34 3e 0b 1a 96 3d 0b bd 93 3d 27 3c 6f bd
       0.17620435 0.07329186 0.072137915 -0.058406975
0002c0 65 47 3d bd 34 d5 2f be c6 58 6f bd a4 2e cd 3d
       -0.046210665 -0.17171174 -0.05843427 0.100186616
0002d0 a2 f1 d4 3d 8b e1 29 be ab 0c 05 3d 24 61 40 3b
       0.1039765 -0.16589944 0.032482784 0.0029354775
0002e0 3a 6f 9d bd 04 ad 01 3e 65 e2 fb bd 98 22 4a 3d
       -0.076872304 0.12663656 -0.12299041 0.049349397
0002f0 c7 33 41 3d 09 31 17 bd c0 13 15 bd 0e d0 d1 3b
       0.04716852 -0.036911998 -0.03639579 0.006402976
000300 d9 3c 2d bd e8 1b b1 3d 56 36 25 bd d7 17 02 3e
       -0.042294357 0.08647901 -0.040335022 0.12704407
000310 6e 20 6b bb f3 ab 10 3e 62 94 36 3e ce ab 87 3d
       -0.0035877484 0.14128093 0.17830041 0.06624566
000320 c2 17 4c 3c 29 29 1e 3e 31 a5 33 3d c2 31 cb bd
       0.012456836 0.15445389 0.04385871 -0.099216
000330 1f c6 a7 3d 44 25 a1 bd 11 11 a4 bd 0e 92 34 bd
       0.081920855 -0.07868436 -0.08011068 -0.0440846
000340 c1 92 aa 3d 7c ec de bd 8b c9 dd 3d 90 4a a1 bb
       0.08328772 -0.108849496 0.10829457 -0.0049222186
000350 6c cc 33 3e a1 82 0c 3d 8e 36 f5 3d cc 30 ee 3d
       0.1755845 0.034304265 0.11973296 0.11630401
000360 cb 13 82 3d 3f a7 e6 3d 16 ff 88 3d fb ba 3d bd
       0.063514315 0.112623684 0.06689279 -0.046320897
000370 d9 b6 9e 3a 81 57 ea 3d 53 c3 da bd c2 16 b1 bb
       0.0012108936 0.11442471 -0.106817864 -0.0054043243
000380 0c 83 ce bd 46 73 2e bd f1 8e c5 bd 1e 11 bb bd
       -0.10083589 -0.042590402 -0.096464045 -0.09134124
000390 f6 de 44 bd 4e b7 0d 3e df 2e 4b bd ac 77 d2 3d
       -0.048064195 0.13839456 -0.049605247 0.10276732
0003a0 24 8d 9d 3d d3 e9 e8 3d a7 5c cc 3b c4 2c ea bd
       0.07692936 0.113727234 0.006236631 -0.114343196
0003b0 a2 5b 8d 3c 8e e5 c7 3d 16 65 e2 3d e0 cd e2 bd
       0.017255608 0.09760581 0.11054437 -0.11074424
0003c0 fc 53 2c 39 22 d4 f0 3d 8c da d8 3d e1 33 00 3d
       0.00016434485 0.11759211 0.105885595 0.031299476
0003d0 a8 02 9f 3d 34 c9 e2 bd 61 02 d4 bc e8 6a 44 bc
       0.077641785 -0.11073533 -0.02588004 -0.011988379
0003e0 fb 38 c2 3d ff 47 c6 bc 5b 82 4f bd 93 79 94 3d
       0.094835244 -0.024204252 -0.050661426 0.07249751
0003f0 77 2e f0 3d bc 9f 8f 3d 62 c3 96 3b 55 1f de 3d
       0.117276125 0.07012889 0.004600928 0.1084582

model/conv1d_3/Conv1D/ExpandDims_1:0 f4 [64, 64, 1, 3]
000000 1e f8 32 bd 0c b3 25 3d 8d 0d 2f be 10 0f 5f 3b
       -0.043693654 0.040453956 -0.17095013 0.0034036078
000010 11 4d d2 bd ed 00 e6 3c 77 2c b7 3d 60 55 2f bd
       -0.102686055 0.028076613 0.08944028 -0.04280603
000020 70 a2 28 3c 7a e5 40 3d 3e ae 78 bd 58 6e 7a 3d
       0.010292634 0.047093846 -0.060713045 0.06114039
000030 1a c1 fe bc e6 06 b7 3d c6 f9 ea 3d 0c 5e d2 b9
       -0.031097937 0.08936863 0.11473422 -0.00040124392
000040 f5 38 88 3d ad 67 ed 3d db f4 d0 3d 77 59 f5 bd
       0.06651489 0.1159204 0.102029525 -0.11979955
000050 f0 2b a4 bd b2 a8 10 3e 70 2d 0b 3e 1a 69 9a 39
       -0.08016193 0.14126852 0.13591552 0.00029451476
000060 cc 50 5c bc 5e 84 c2 bc cf eb f6 3d e9 9d aa 3d
       -0.013446998 -0.023744758 0.12056696 0.083309
000070 a2 43 fb 3d 84 ee aa 3d e6 d7 b8 bc e0 6f f8 bc
       0.12268759 0.083462745 -0.022563886 -0.030326784
000080 5f 4a 93 bd a5 33 a2 3d 73 74 09 3d c8 01 bf bb
       -0.071919195 0.07920007 0.03355832 -0.0058290698
000090 fa 7e fb bd 85 fd 50 3d ca 09 a5 bd ed 91 70 bd
       -0.12280078 0.051023025 -0.08058508 -0.058732916
0000a0 3a 66 cf 3d 65 2d 1c bd db e2 75 3d 6d ef 93 3d
       0.1012692 -0.03812923 0.0600308 0.07223401
0000b0 f6 1c 40 3d 0b 5e 5e 3e ed f1 98 3d 17 61 e7 bd
       0.04690262 0.21715562 0.07468019 -0.11297815
0000c0 05 33 34 be 21 ae 00 be 2c 09 b7 bd e4 a6 d7 bc
       -0.17597587 -0.12566425 -0.08937296 -0.026324697
0000d0 03 b2 14 bd 15 62 be 3d 85 d6 e9 bd 99 09 13 bc
       -0.036302578 0.092960514 -0.114178695 -0.008974456
0000e0 71 20 d7 3d 54 9a 74 3c 05 32 eb bd bc fd 7a 3c
       0.105042346 0.014929373 -0.1148415 0.015319284
0000f0 27 69 9c bd 42 96 d1 bd 91 17 d2 bd 03 00 30 3d
       -0.07637244 -0.102337375 -0.10258401 0.04296876
000100 26 98 05 bd d2 e3 03 be 86 66 02 3d a5 13 cc 3c
       -0.032615803 -0.12879875 0.031836055 0.024911711
000110 8a c2 82 3c 07 ab c6 3d 64 0f c0 bc c9 80 fc 3d
       0.015961904 0.097005896 -0.023444839 0.12329251
000120 02 4a 3c 3d 4c 54 01 3d 5d 71 06 3e 36 a2 ba 3d
       0.045969017 0.031574532 0.13129182 0.091129705
000130 05 2c 57 3c 1f 76 08 be 6d eb a8 3d 3b 5d 19 bc
       0.013133054 -0.1332631 0.08248029 -0.009360607
000140 54 92 e1 3d c2 f3 c2 bd ea 28 da bd 28 2b e4 bd
       0.11014238 -0.09519149 -0.10652335 -0.11141044
000150 9d a1 cf 3c 36 74 08 3d 22 ce cf 3d 08 de 32 3d
       0.025345618 0.033313952 0.101467386 0.043668777
000160 06 8f f5 3d f5 09 80 bd 77 d5 15 3e 42 6e c0 3d
       0.1199017 -0.06251899 0.14632212 0.0939603
000170 fe 66 3d 3c 89 29 ac bc 7a 09 9d 3d d5 a2 77 3d
       0.0115602 -0.0210159 0.07667823 0.060458023
000180 f9 fe 5e 3d 8c 7e dc bd e6 f2 a8 bd 58 14 1b be
       0.05444238 -0.107663244 -0.08249454 -0.1514448
000190 58 2d 9b 3d f8 8a 3e bd 63 4d 08 3e 79 65 e2 bd
       0.07577008 -0.04651925 0.1331077 -0.110545106
0001a0 0c e2 25 be e9 0f be bd 91 89 1a ba 33 42 86 bd
       -0.16199511 -0.09280378 -0.0005895133 -0.06555595
0001b0 b4 5a 05 bd 4c 49 b4 bd 74 df 44 3d b5 8f 9b be
       -0.032557204 -0.08803043 0.048064664 -0.30383077
0001c0 a9 ec 8d be 2b ef 82 bd 38 36 2d be 64 f2 46 3c
       -0.2771962 -0.06393274 -0.16915214 0.012142751
0001d0 6e 4a 27 be 9c 9b ce bb f9 a7 58 3d e3 b4 18 3d
       -0.16336986 -0.006305171 0.052894566 0.037281882
0001e0 5a 2a 76 3d 26 5f ee bc 94 ef 15 3e 60 a5 65 bd
       0.060098983 -0.029098105 0.14642173 -0.056065917
0001f0 05 62 a7 3d c3 79 08 3d 00 04 26 be 88 d8 ef bd
       0.081729926 0.033319246 -0.16212463 -0.11711222
000200 69 05 a8 3d 2c 6e 19 3e 2c 67 e9 3d 04 96 6b 3d
       0.08204157 0.14983433 0.113966316 0.057516113
000210 1f 45 ad 3c c7 d9 ba bc 7e 75 18 3d b6 36 40 bd
       0.021151124 -0.022808922 0.037221424 -0.046927176
000220 af cd a5 bd 17 9d 97 bc d5 b2 9f bd c9 c7 bc bd
       -0.08095872 -0.018507523 -0.077977814 -0.092177935
000230 1d 62 f4 bc 3a fc 1c 3e d3 1f b9 3d 80 bd a6 bd
       -0.02983194 0.15330592 0.09039273 -0.08141613
000240 e8 3f b5 3c 8c a9 8d bd 42 4b 4d 3d 6c e7 67 be
       0.0221252 -0.06917104 0.0501206 -0.22646874
000250 5c 8a df bd 8e 28 a0 bd a6 b0 fa 3d c3 a2 e0 3d
       -0.10915062 -0.07820235 0.12240724 0.10968544
000260 6d bc d2 3a bc 10 70 3d bf a9 28 3d 72 2f 55 be
       0.0016077884 0.05860971 0.041177507 -0.2081888
000270 01 6c 91 bc 11 f4 10 3e 57 11 7d 3d 13 4a 28 be
       -0.017751696 0.14155604 0.061784115 -0.16434507
000280 e8 59 07 be ad 5e 57 bd f1 07 c3 bd eb 30 11 bc
       -0.1321789 -0.052580524 -0.09522999 -0.008861761
000290 59 dd 69 3d 9c 63 00 3d 1e 15 22 bd 42 47 68 3d
       0.05709586 0.031344995 -0.03957092 0.05670858
0002a0 27 b7 2d bd 5d 50 8d bd c8 ed 08 bd 27 74 a0 bd
       -0.042410996 -0.06900094 -0.03342989 -0.07834654
0002b0 be 0c 94 bd 0b fe b9 3d 9e 7c 89 bd f2 ac ab bd
       -0.07228993 0.09081658 -0.06713222 -0.08382596
0002c0 32 cc 1d 3d ad 31 08 be da d1 ee 3c e6 39 34 3d
       0.038524814 -0.133002 0.0291528 0.04400053
0002d0 a5 44 c5 3d cf f2 0b 3d 40 68 7c bc 40 be f0 bc
       0.096322335 0.034167107 -0.0154057145 -0.029387593
0002e0 5f 13 84 bd b9 86 b3 3d d8 fa 8f bd 98 62 db bd
       -0.06449007 0.08765931 -0.070302665 -0.10712165
0002f0 a8 39 e8 3c 8a 9c c5 bc 3d c8 c1 3b 38 6b f1 bd
       0.028347805 -0.024122495 0.005913763 -0.117880285
000300 c2 50 80 3d 47 be 24 3d ee 3c d3 3d 27 7c 12 bd
       0.06265403 0.040220525 0.10314356 -0.035762932
000310 10 ff ee 3d 54 36 f4 3d 8b 4e d2 bd 51 13 8b bd
       0.11669743 0.11924425 -0.10268887 -0.06790794
000320 42 e8 34 be 8c 60 51 be dd 2d 31 be be 17 67 be
       -0.17666724 -0.20446986 -0.17302652 -0.2256765
000330 9c 50 08 3e 6a 50 04 3e 4d 5a 2a bd be bc 84 3d
       0.13312 0.129213 -0.041590024 0.06481312
000340 12 25 c1 3d d5 f7 df 3b e8 ef 4f 3e a3 d0 cc 3d
       0.09430899 0.006834964 0.2030636 0.10000732
000350 60 54 18 be 9a 06 be 3d 22 c3 f4 3d 3b e0 36 3e
       -0.14875937 0.09278603 0.11951281 0.17858975
000360 a6 bb 15 3d 89 a1 b5 bd 32 5d e3 bd 80 57 71 bd
       0.03655591 -0.08868701 -0.1110176 -0.058921337
000370 9a 6b 74 3d 24 1e c0 3d 9d 9b be 3c 1c dc b6 bd
       0.05967293 0.09380749 0.023267562 -0.08928701
000380 e6 1f 05 bb a2 0c 23 3e 13 ec ef bc 12 2e b4 3d
       -0.0020313202 0.15922788 -0.029287374 0.0879785
000390 7c b2 3d bd 1b e5 55 bd 9d f2 cc 3c 2f 53 21 3e
       -0.046312794 -0.052220445 0.02501803 0.15754388
0003a0 5c d7 22 3d d4 26 29 3d 0b 7c bf 3d b7 30 1c 3e
       0.039756164 0.041296795 0.09349831 0.15252958
0003b0 7a 5a 33 bc e2 8c 35 3e a3 85 ae bc 50 c1 0c 3e
       -0.010946864 0.17729524 -0.021303957 0.13745618
0003c0 d5 8c 71 3c f3 af fa 3d 7b 18 84 3c 61 38 ff 3c
       0.01474305 0.12240591 0.016124954 0.031154813
0003d0 ee d2 42 3d ab 15 59 bd f9 8d c0 3c 2a 84 ac bd
       0.04756444 -0.05299918 0.023505198 -0.08423646
0003e0 7d 5e 27 3d 7f 32 c6 bd ca 07 ac 3d c4 a8 e3 3d
       0.040861595 -0.096776 0.08399923 0.11116174
0003f0 d2 d8 95 3d 57 25 43 bd 7c 55 78 3d 2e c2 9c 3d
       0.07316746 -0.047643032 0.0606284 0.07654224

model/conv1d_2/Conv1D/ExpandDims_1:0 f4 [64, 32, 1, 3]
000000 01 35 2d bd 41 18 c5 3d 24 d2 e5 bd 22 68 e4 3d
       -0.042286877 0.09623767 -0.11221722 0.11152674
000010 79 90 78 3d 1b 96 12 be 74 ad 6e 3d 78 c8 ea 3d
       0.060684655 -0.14315073 0.058270887 0.11464018
000020 74 06 09 3d 8e 92 a3 bc 87 d9 f3 3d 32 37 e3 bd
       0.03345342 -0.019967344 0.119067244 -0.11094512
000030 5c b5 1b 3c 7f 91 18 3e 2c 60 26 be 17 5c 23 be
       0.009503689 0.14899252 -0.16247624 -0.15953098
000040 c9 f3 f6 bb f2 4f 0d be 9b b3 a2 bc cb 13 12 3d
       -0.0075363857 -0.13800028 -0.019861033 0.035663407
000050 b3 e8 3f bb de 83 0c 3d 2d 09 ac bc 2a da 87 bd
       -0.0029282987 0.034305446 -0.02100047 -0.06633408
000060 a1 79 cb 3d 1a 98 35 3e 98 ac 69 3e 3e 05 d2 bd
       0.09935308 0.17733803 0.22819746 -0.10254906
000070 0a 81 f4 3d c4 b2 4c 3d 56 78 34 bd e1 2a 31 bd
       0.11938675 0.04997517 -0.044060074 -0.043253783
000080 f9 ad 90 3d c9 24 b9 3d e2 bc 2b 3a de 42 70 bc
       0.07064433 0.09040219 0.0006551278 -0.01466438
000090 a3 f7 97 bd 39 b6 e9 3d 44 97 a1 bc 93 31 21 3e
       -0.0742028 0.11411709 -0.01972545 0.15741567
0000a0 25 aa 75 3d 41 aa 3e 3d 90 ba b0 bd e5 dc aa 3d
       0.059976716 0.046549086 -0.08629334 0.083429135
0000b0 e1 a1 91 3c ef 3e 0f be 9c 96 22 bc ea 2f ee bd
       0.017777385 -0.13988851 -0.009923603 -0.11630233
0000c0 02 b8 2a be d0 6e a2 bd a5 5a 60 bd 80 c7 4c bd
       -0.16671756 -0.07931292 -0.054773945 -0.049994946
0000d0 bd 1f a2 3d 93 a5 83 bd 39 e7 38 3e fe 6b 0a be
       0.0791621 -0.06428065 0.18056954 -0.13517758
0000e0 66 44 c6 3d 58 a2 1a 3e 2a 79 fc bd 8b 62 a6 bd
       0.09681015 0.15100992 -0.12327798 -0.08124264
0000f0 3c ba 20 3e 30 13 62 bd 98 33 c3 bc f6 3c 5c 3d
       0.15696043 -0.05519408 -0.023828313 0.053769074
000100 a8 df 82 3d 6d 4b 71 bd f7 64 15 3d 8b eb aa bd
       0.06390315 -0.058909822 0.03647324 -0.083457075
000110 0a bd 00 3e 8e 3c e2 bd f2 50 a0 bd fa 81 66 3e
       0.12572113 -0.11046706 -0.07827939 0.2251052
000120 51 2c 0e be 8b 28 56 3d dd be 51 bd ab a6 3f be
       -0.13884093 0.05228476 -0.051207412 -0.18715923
000130 57 1c e3 bd 38 cf 14 3a 9a ef 91 3d d3 aa 44 bd
       -0.1108939 0.000567663 0.071257785 -0.048014473
000140 b2 87 16 be 49 18 0d 3d 9d 55 cd 3d 51 d9 b2 bd
       -0.14700201 0.03444699 0.10026095 -0.08732856
000150 13 b5 15 3e 63 ba 1f 3e 9f d5 fa bd a2 2f 2c 3e
       0.14619856 0.15598445 -0.12247776 0.16815045
000160 fa 89 08 be 3d 8f 82 3d 09 0e 76 bc fa 56 6d 3d
       -0.13333884 0.06374977 -0.015017995 0.057944275
000170 f2 b8 21 be 1e 76 4a bd e3 04 53 be 80 13 9a bd
       -0.15793207 -0.04942905 -0.20607333 -0.075232506
000180 71 f3 7b 3c 36 29 32 be 61 7f fa 3d e0 56 53 bd
       0.015377865 -0.17398533 0.12231327 -0.051596522
000190 5a e8 40 bd 75 b6 ff bd 63 9c 03 3e dc 2c be bd
       -0.047096588 -0.12485973 0.12852626 -0.092859
0001a0 ef 82 6e bd 3d ec f6 bd be 48 1e 3e d9 bd b2 bd
       -0.058230337 -0.120567776 0.15457436 -0.08727617
0001b0 42 cd 14 3e a3 4a f4 bd fb 5a ad bd fc 85 82 bc
       0.14531425 -0.11928298 -0.08464619 -0.01593303
0001c0 67 b1 bc 3d 28 f7 06 3e 93 4b 34 3e 19 be be 3d
       0.09213524 0.1318022 0.17606954 0.09313602
0001d0 41 47 6c bd 67 cc 22 be d8 b1 a7 bd 08 4d 63 3e
       -0.05768514 -0.15898286 -0.08188218 0.22197354
0001e0 8e 61 ef bd b4 cf 19 3c 78 99 8f 3d fa b1 c8 bd
       -0.11688529 0.009387899 0.07011694 -0.09799571
0001f0 92 fa 85 3c e8 2d 07 bd f1 15 20 be 85 61 68 bd
       0.016354833 -0.033002764 -0.1563337 -0.056733627
000200 1b c7 a4 3d 94 d3 f0 3c 26 9b 6d bb 0d 56 59 3e
       0.08045789 0.029397763 -0.0036255806 0.21224232
000210 e6 3f eb bc c5 21 e8 3d f1 86 83 3d 49 4d 26 be
       -0.028716993 0.11334566 0.064222224 -0.1624042
000220 93 d7 b2 3d 9c 43 a9 ba 2e 2e 1e 3d 24 e1 c9 bd
       0.08732524 -0.0012913826 0.03861826 -0.09857395
000230 d0 90 04 3e 34 f4 26 bd 0b 18 2d 3e 2a ad 47 3d
       0.12945867 -0.040760234 0.16903703 0.048749126
000240 0f c5 13 3e dc 1b 46 3e bc b7 ef bd 8b 28 ef 3d
       0.1443064 0.19346565 -0.117049664 0.11677655
000250 28 22 f5 bd 3b 8d 0e be 75 6e 2a be 36 41 e5 3d
       -0.119694054 -0.13921063 -0.16643699 0.111940786
000260 98 1a 3d bd ea 76 50 bc 29 9d e4 3d fa c2 7a bb
       -0.04616794 -0.012723664 0.111627884 -0.0038263188
000270 54 c6 c8 3d 49 17 01 be d0 bc f6 bd df 77 8d bd
       0.09803453 -0.12606539 -0.12047732 -0.06907629
000280 8a ea d8 bc dc 13 a6 3d d8 72 fb bb a5 02 91 bd
       -0.026479024 0.081092566 -0.0076736026 -0.070805825
000290 6c 40 c2 bd 7d cb a1 3c d6 c5 82 bd a7 d4 4d be
       -0.09484944 0.019750351 -0.063853905 -0.20100652
0002a0 8d 8c 0b 3e e8 e3 ac bc 1a 6a 25 bd a1 66 94 bc
       0.13627835 -0.021104768 -0.04038439 -0.018115344
0002b0 1e c0 2e bd a1 2e 80 bc c3 83 f7 3d b7 0e 33 3d
       -0.042663686 -0.015647234 0.120856784 0.043715205
0002c0 19 7a 40 3e c2 30 29 3c 46 7d 25 be 77 49 57 be
       0.18796577 0.010326566 -0.1616107 -0.21024118
0002d0 b7 3a b0 3d f1 c8 f2 bd b1 6e ed bd 88 02 e7 bd
       0.08604949 -0.11854733 -0.11593378 -0.1127978
0002e0 49 49 7d 3d 12 16 bd bd 5d dd de ba 4b da 6a bd
       0.06183747 -0.09232725 -0.0017003227 -0.057337087
0002f0 e9 bc 44 bc 60 75 3c bd db 59 c2 bd 1e cb e7 3c
       -0.01200793 -0.046010375 -0.09489795 0.028295096
000300 5e 7c 30 bd e7 7f 9a bc 96 de 0c 3e 1f fe cf 3c
       -0.043087356 -0.018859817 0.13756785 0.025389729
000310 ec 00 03 bd ab 6d 5e 3c a7 76 df 3c ff e8 b4 bd
       -0.0319833 0.013575952 0.027278258 -0.08833503
000320 f9 87 75 bd 75 22 ec bd 70 a6 5c 3d f5 d1 4c 3d
       -0.059944127 -0.1153001 0.053869665 0.050004918
000330 53 17 d9 bd 42 46 b1 bc a5 8c 3d 3d 20 65 e7 bd
       -0.10600152 -0.021639947 0.046276707 -0.11298585
000340 73 d7 ce bd e0 45 b2 bd 07 f7 72 3d de a2 08 bd
       -0.100996874 -0.08704734 0.059317615 -0.033358447
000350 82 db 94 bd 1e 66 4a bd ae ae d8 3d 41 64 06 bd
       -0.0726843 -0.049413793 0.105801925 -0.032810453
000360 dd ee 1f be 4d dd c1 3d 26 cb cd 3d d5 57 73 3c
       -0.15618463 0.09466038 0.10048513 0.014852484
000370 40 41 20 be 86 ff 12 3d dc cd a3 bc f0 2b 9d bd
       -0.15649891 0.035888217 -0.019995622 -0.07674396
000380 73 29 68 3b db e4 ab bc ee 9e ae 3d 9e d8 75 bd
       0.0035425096 -0.02098315 0.08526407 -0.060021035
000390 36 ed aa 3d 8f b2 96 3c 62 b4 f5 3d a1 65 90 3d
       0.08346026 0.01839569 0.11997296 0.07050634
0003a0 24 14 27 bb 80 a2 06 be 4f fc f3 bb 91 b6 aa 3c
       -0.0025494182 -0.13147926 -0.007445849 0.020839008
0003b0 51 30 13 bd e0 b8 ce bd cc 5f 0f be b5 d3 a1 bd
       -0.03593475 -0.10093856 -0.14001387 -0.07901708
0003c0 a9 77 31 3e 38 06 12 3e ff a9 97 bd 80 48 a4 bd
       0.17330803 0.14260185 -0.07405471 -0.08021641
0003d0 0c 45 d9 3d 49 28 43 3e cf 15 db bd 9b ca 3d bd
       0.10608873 0.19058336 -0.10697519 -0.046335798
0003e0 13 5f 9f bd 75 0f de bd 73 6a 1d 3e 5c cd 9c 3d
       -0.07781806 -0.10842792 0.15372638 0.07656357
0003f0 6b 6d cb 3d 7c 5c 97 3d 5c 9e e3 b9 6f 11 70 bd
       0.09932979 0.07390687 -0.000434148 -0.058610376

model/conv1d_1/Conv1D/ExpandDims_1:0 f4 [32, 16, 1, 5]
000000 de ee f9 bd 7c 9b 10 be 33 fb 60 be ff 39 cc bd
       -0.122037634 -0.14121813 -0.21970825 -0.099719994
000010 72 26 13 3e 0a 76 15 be a1 40 72 be d4 75 42 bb
       0.14370134 -0.1459581 -0.23657466 -0.0029672282
000020 a8 a8 af 3d ea c0 1c 3c 57 fd 0d bd bd 62 0a be
       0.085770905 0.009567479 -0.03466543 -0.13514228
000030 04 5e 27 3d 37 65 e2 3d be 47 17 3e f9 9d 78 3d
       0.040861145 0.110544614 0.14773461 0.06069753
000040 f9 29 04 3c 67 c2 19 be 34 e1 04 3e a0 a9 99 bc
       0.008066648 -0.15015565 0.12976533 -0.018757641
000050 af b8 c0 3c d0 69 9c 3d e1 8f 96 bd 75 95 5a bd
       0.023525564 0.0763737 -0.073516615 -0.05336519
000060 7c 53 c5 bd cb ab a9 3d 19 c9 9d 3d 19 d4 cb 3d
       -0.09635064 0.0828472 0.07704372 0.09952564
000070 44 7b 09 be 61 9a 32 3d 0f 10 c9 3d ce d1 28 bd
       -0.13425928 0.04360426 0.09817516 -0.04121571
000080 ad b8 bc bc b3 b1 9f 3c 20 15 4e be c5 d7 cc 3d
       -0.023037279 0.019493913 -0.20125246 0.10002092
000090 ec 91 88 be eb a5 1b 3d 6f 2a 15 3d 55 f8 70 bd
       -0.2667383 0.03800003 0.03641742 -0.058830578
0000a0 56 fa b2 3d a5 be ad 3b c6 cb 3b 3d 1d 55 a5 3d
       0.08739154 0.0053022676 0.04584863 0.08072875
0000b0 29 d5 0d 3e 52 85 a9 3d 8e 33 b7 3d ee 5c f8 bd
       0.13850845 0.08277382 0.0894538 -0.121271
0000c0 3b 42 e0 bd ee 0b 57 bc 18 0e de bd 49 2c f5 bd
       -0.109501325 -0.013125403 -0.10842532 -0.11971337
0000d0 32 28 94 3d 64 c5 17 3e fb 26 08 3d 1e 01 24 3e
       0.07234229 0.14821392 0.0332403 0.16016051
0000e0 9c d9 87 be 5d d4 09 3e 13 e1 81 3d c4 f2 8e 3d
       -0.2653321 0.13459916 0.063417576 0.069798976
0000f0 e6 76 18 be c8 f0 57 be 9b 75 ad bc 4e 71 70 3d
       -0.14889106 -0.21087945 -0.021174243 0.058701806
000100 47 4b d5 3d 4e ac af 3d 03 ac 87 bc 5f 33 af 3c
       0.10414749 0.085777864 -0.016561514 0.0213868
000110 84 f5 c9 3d 6d 12 59 bc cd d8 34 3a e9 9c ae bd
       0.098612815 -0.013249022 0.0006898761 -0.08526022
000120 7c f5 c5 bd 77 2f 14 3d 4f 38 fd 3d ff e6 23 bd
       -0.09665963 0.03617808 0.12364256 -0.040015217
000130 6b a9 f9 bd 4e 4e 77 3d 06 37 22 bd d4 d1 81 bd
       -0.12190517 0.06037741 -0.039603256 -0.0633885
000140 8f d2 56 3e 02 3d b9 bd b9 17 0c 3c 44 d2 95 38
       0.20978759 -0.090448394 0.008550578 7.144039e-05
000150 7e a8 31 3d 2c 63 4d 3d d4 f0 08 be 88 9c 0d bd
       0.043373577 0.050143406 -0.13373119 -0.034573108
000160 78 4a de 3c 3d 55 b9 bd a9 67 00 be 8b 22 df bd
       0.027135119 -0.09049461 -0.12539543 -0.108952604
000170 ec eb bb bd 4e 99 34 3d 88 79 ba 3d d0 ea 99 bd
       -0.09175858 0.044091515 0.091052115 -0.0751549
000180 d3 63 2b bd bc 22 42 be 20 9a ca 3b 6d 69 05 3e
       -0.041843247 -0.18958563 0.006182924 0.13028498
000190 54 4c 63 be 36 77 e2 3d 2e 3d 13 3e 80 63 46 bd
       -0.22197086 0.11057894 0.14378807 -0.048434734
0001a0 de 1c ca 3d d3 c2 81 bd ba 4f e1 3d 86 a0 c6 bd
       0.09868787 -0.06335988 0.11001535 -0.09698586
0001b0 98 d9 a5 3d 04 a9 39 bd fd 08 9d bd 06 cb a6 bd
       0.08098143 -0.0453272 -0.0766773 -0.081441924
0001c0 e8 e0 b3 3d 8c f4 eb bd 63 2f a8 bd eb 66 1c 3e
       0.08783132 -0.11521253 -0.08212163 0.15273635
0001d0 22 82 86 3d 99 ba f2 bc 39 4b 1d 3e 6e 3c 33 3e
       0.065677896 -0.029629992 0.15360726 0.17503521
0001e0 79 c7 76 bd 22 a0 4d 3e a0 fc eb bd 0b 6c 25 be
       -0.060248826 0.20080617 -0.11522794 -0.16154496
0001f0 93 2c 6f 3d 7a 10 14 be 36 42 de bd a6 6a e9 bd
       0.05839212 -0.1445941 -0.108524725 -0.11397295
000200 94 f4 23 3e 32 75 94 3d 0e 31 4a be ee a5 83 bd
       0.16011268 0.07248916 -0.19745275 -0.06428133
000210 4e 45 a3 bc fb 17 e1 bd 5a cb 5b be 76 1a 2c bd
       -0.019930508 -0.10990902 -0.21464291 -0.042017423
000220 f3 60 0f 3d 83 e5 f8 bc 8e 47 e5 bd f7 87 82 be
       0.035004567 -0.030382877 -0.111952886 -0.25494358
000230 df f9 03 3e 93 0d 1f 3e 2f 72 0d be d3 e6 b1 3c
       0.12888287 0.15532522 -0.13813089 0.02171651
000240 f3 2e 8f 3d 5e 56 89 bc 15 34 3f bd 8a 1a 3a bd
       0.06991377 -0.016764816 -0.04668053 -0.045435466
000250 bc ea 98 bc d1 75 a1 3d 9a 5f af bd 7e b8 43 3e
       -0.018666618 0.078838 -0.085631564 0.19113347
000260 55 63 6d bd f5 9e 8a 3d b6 59 8a 3d 2a 09 a0 3d
       -0.05795606 0.067686 0.06755392 0.07814248
000270 81 8d cf bd 3a ed 1e be ef 7a c5 3d 02 70 0e 3d
       -0.101344116 -0.15520182 0.09642588 0.034774788
000280 5f 5f 32 be e9 6a 72 bd 27 b6 84 3d a2 43 67 3e
       -0.17419194 -0.05918399 0.06480055 0.22584394
000290 9d 82 0b 3e 00 ae 35 3e 14 9e 87 3c 04 b3 10 bd
       0.13624044 0.17742157 0.01655487 -0.035326973
0002a0 97 a5 30 bd 80 14 3d 3e b5 ae ae bc 85 d0 ea 3d
       -0.04312667 0.18464851 -0.021323541 0.11465553
0002b0 43 10 dc ba d1 db f3 bc 6a a7 f1 bd 50 a6 c0 bd
       -0.0016789514 -0.029767903 -0.1179951 -0.094067216
0002c0 ff 93 dc bd 21 f2 f9 3c 49 f1 81 bd 21 53 2c bc
       -0.107704155 0.030510964 -0.063448496 -0.010517866
0002d0 d9 49 8e 3d e1 cb 20 bd 90 f2 1d bd 75 ef c2 3d
       0.06947679 -0.039256934 -0.038561404 0.09518329
0002e0 da 2e 0c be a8 0a d9 3d 94 77 c5 3d ca fc 33 bd
       -0.13689747 0.10597736 0.09641948 -0.04394225
0002f0 56 cc 8b 3d 80 e2 ac bd 64 b2 2c 3d cb 68 3e bd
       0.06826083 -0.08441639 0.042162314 -0.046486657
000300 c1 ff d3 3c c3 e9 e4 3d 98 65 31 be 04 56 c8 3c
       0.025878789 0.11177399 -0.17323911 0.024455078
000310 b2 2c 1e be 7e 74 b9 3d ab d2 2a be 30 38 30 3d
       -0.15446737 0.09055422 -0.16681926 0.043022335
000320 f5 c8 10 3e e1 8e 14 3e 66 a4 ca bd 7c d6 86 be
       0.14139159 0.14507629 -0.09894638 -0.26335514
000330 5a 46 b4 3b 36 56 bb bc e6 64 02 be 91 bf 85 bd
       0.0055015506 -0.022868257 -0.12733802 -0.06530679
000340 37 f0 58 bd 24 da bf 3d f9 fa bf 3d 7c 4f 4e bd
       -0.05296346 0.09367779 0.09374041 -0.05036877
000350 71 0d ac bb 23 85 99 bc 90 4b 8c 3c 39 f6 05 3e
       -0.005250626 -0.018740242 0.017125875 0.13082208
000360 07 d0 83 3d d5 d0 b1 3c ed 04 bd bd 15 82 76 3e
       0.064361624 0.021706024 -0.09229455 0.2407306
000370 f9 0f b1 3d 0f 76 50 3e 22 98 22 3c 5e 38 3a be
       0.08645625 0.20357536 0.009923967 -0.18185565
000380 af b8 8c 3d 19 34 2c be 3c 18 87 3e 61 b5 53 3e
       0.06871163 -0.16816749 0.26385677 0.2067466
000390 91 f7 bf bd e0 14 4f bd 4f 37 61 bd c0 b5 ac bc
       -0.093733914 -0.050557017 -0.054984387 -0.021082759
0003a0 7c 3b e3 bd af a3 0a 3d 00 cb 22 bd cf f3 09 3d
       -0.1109533 0.033847507 -0.039744377 0.03367978
0003b0 50 27 40 be ae 94 89 bd e7 3b 04 3e 7f f6 ff 3d
       -0.18764997 -0.067178115 0.12913476 0.12498187
0003c0 f0 8d 09 be 88 91 24 be 2c 29 da bd a3 e9 eb bd
       -0.13433051 -0.16071141 -0.10652384 -0.11519172
0003d0 85 6f df bd fb 35 32 be 48 97 34 be 41 da 65 bd
       -0.109099425 -0.17403404 -0.17635834 -0.056116346
0003e0 a4 dd 4f bd 94 0d 6e bc 0e bc e0 3c ac 7b cc 3d
       -0.050748482 -0.014529604 0.027433421 0.09984526
0003f0 fe 72 7f 3c 3a cc c4 3d 23 63 11 3e 33 b3 f6 bd
       0.015591381 0.096092656 0.14197974 -0.12045898

model/conv1d/Conv1D/ExpandDims_1:0 f4 [16, 8, 1, 11]
000000 5f 7f 77 3e bf ef df bc c2 a1 ae 3c 75 66 8a bd
       0.24169682 -0.027336 0.021317367 -0.067578234
000010 54 62 38 be 6e 71 1d bd 8b cb 5d be 00 82 13 be
       -0.18006259 -0.038438253 -0.21659677 -0.1440506
000020 f7 cb 4b be 3c 52 c8 bd d9 66 d7 bd 28 27 90 3e
       -0.19902025 -0.0978131 -0.105176635 0.28154874
000030 60 18 1d 3e f2 f2 38 3e ba 09 4e 3e 74 f2 07 bc
       0.1534133 0.18061426 0.20120898 -0.008297551
000040 43 84 04 3e d7 d8 4b 3e 57 7b ca bc 36 30 de 3d
       0.12941079 0.19906937 -0.024717016 0.10849039
000050 41 4a 18 be 7c 62 85 3d 18 f1 3b 3d 84 b0 07 3e
       -0.14872076 0.06512925 0.04588422 0.13250929
000060 3a a5 1e 3e 89 43 9e 3d e6 fc 6a 3d a7 b3 87 3c
       0.15492716 0.07727725 0.05737009 0.016565157
000070 66 f3 c4 3c e3 fc a3 3d d0 4f b9 3d 08 e7 e2 bd
       0.024041843 0.08007219 0.09048426 -0.11079222
000080 92 6c eb bd 1c 68 28 bd 99 89 c8 3d 8f a0 5d 3d
       -0.114953175 -0.04111491 0.0979187 0.0541082
000090 e4 a0 a9 3d f0 7a b5 bd 1c 74 96 3d ca 98 01 3e
       0.082826406 -0.08861339 0.07346365 0.1265594
0000a0 4c 0a 33 be 2f ab 2e 3d 9c 45 7a bb 68 45 0e be
       -0.17484397 0.042643722 -0.0038188463 -0.13893664
0000b0 33 e8 63 3d 05 3c bc bd 7f 09 0a 3d 78 4c 03 3e
       0.055641364 -0.09191135 0.033700462 0.1282214
0000c0 c6 2e fd 3d cd bd 42 bd 82 51 32 bd 5d 85 68 3b
       0.12362437 -0.04754429 -0.043534763 0.0035479881
0000d0 cb c9 a3 3d 64 ed a8 3d c1 69 c7 bd 30 22 d9 bb
       0.07997473 0.08248404 -0.09736968 -0.00662639
0000e0 e4 2b 14 be 0c 5a 57 3d df 76 30 3d 9c 39 23 bd
       -0.14469868 0.05257611 0.043082114 -0.039849862
0000f0 fa 3e a1 3d 9c 5a 82 3d 10 a8 ac bd 8b bc db bd
       0.0787334 0.063649386 -0.08430493 -0.10729321
000100 9e 7c 66 bd eb e8 10 bd bc 82 9f bc 58 2d bf bd
       -0.056271188 -0.035378378 -0.019471519 -0.093348205
000110 b1 37 cf bc dd 0e e2 bd ec 94 1a be 47 c9 1a 3e
       -0.02529511 -0.11037991 -0.15095872 0.15115844
000120 da e4 e5 bc 46 fd ba bd 3b 45 d9 3c 6a 10 7e bd
       -0.028063226 -0.09130339 0.02652227 -0.062027372
000130 0d 2e 04 be be 52 44 bd 35 e4 7d bc d2 c2 36 be
       -0.12908192 -0.04793047 -0.015496303 -0.17847756
000140 6c 48 76 bd 0c ef b1 bd af 2c c8 bd be 47 dd bd
       -0.06012766 -0.08688173 -0.09774148 -0.10804699
000150 62 77 37 3e d3 1b 1d be dc ab 31 be f1 15 82 bd
       0.17916635 -0.15342645 -0.17350715 -0.06351841
000160 99 6d ac bd 18 f7 8a bd 19 0e 35 3c 99 67 ba 3c
       -0.084193416 -0.06785411 0.011050724 0.022754477
000170 00 ec 57 be c8 40 45 be 4d 0d c7 bd d9 ee 8d be
       -0.2108612 -0.19262993 -0.09719334 -0.2772129
000180 92 5b a5 bb 20 71 22 be b1 46 60 be 7c 62 2d 3e
       -0.0050463164 -0.15863466 -0.21901967 0.169321
000190 c6 df 2d 3e 4e aa e7 bd 9f ca aa bc 17 b2 8e bd
       0.16979894 -0.1131178 -0.02084857 -0.06967562
0001a0 64 f1 85 be 89 46 28 be ae f9 3a be f2 a5 fb bd
       -0.2616073 -0.16433157 -0.18259308 -0.12287511
0001b0 6d 6a fc bd fc f7 4e be dc 42 b2 bd 4d d7 06 3e
       -0.123249866 -0.20211786 -0.08704159 0.13168068
0001c0 a6 44 3b 3d 52 dd 0e 3e 47 33 48 bd 07 8b 87 bd
       0.045719765 0.13951614 -0.048877027 -0.06618314
0001d0 4a 68 9e 3d 76 37 43 3e 09 d1 54 bd 62 eb 42 bc
       0.07734735 0.19064125 -0.051957164 -0.01189694
0001e0 5c 61 29 bd 11 7d 11 3e 27 b0 4c 3c 14 18 7b 3d
       -0.041352615 0.14207865 0.01249317 0.06130226
0001f0 3f 02 0e be 5f db bd 3d b1 11 82 3d 52 ea 1d 3e
       -0.13868044 0.09270357 0.063510306 0.15421417
000200 ef 06 dd 3d 8a 55 1d 3d 32 54 a1 bd 67 9b 11 bd
       0.10792338 0.038411655 -0.07877387 -0.035548594
000210 ac bf 38 3e c8 40 06 be cc 28 ff bd 44 f6 1d 3a
       0.18041867 -0.1311065 -0.12458953 0.0006025771
000220 bd bc 86 bd 63 05 9a bd 13 1f 80 3c 7c bf 61 3d
       -0.06578968 -0.07520559 0.015639817 0.055114254
000230 a6 19 0a bd 80 11 95 3d c9 cf 39 3b 48 45 26 3e
       -0.033715867 0.072787285 0.002835261 0.16237366
000240 93 72 b1 3b ec 6f 40 bd bd 23 15 3d 5d 10 f8 bd
       0.0054152696 -0.046981737 0.036411036 -0.12112496
000250 b7 be 89 3d 4a 46 8a 3d 23 d3 b1 bd 5b 82 3e bb
       0.06725829 0.06751688 -0.08682849 -0.0029069397
000260 b0 cd 35 3e ef a4 bc bd df da 92 bd 6a dd fd 3d
       0.17754245 -0.09211146 -0.071706526 0.12395747
000270 d6 b6 f6 bd 2a f2 cc bd 97 db b3 bd 90 80 2c be
       -0.12046592 -0.10007127 -0.08782118 -0.16845918
000280 8f bd 83 bb 18 72 2f be 53 28 ec bd 6d 9c 06 bd
       -0.0040204 -0.17133367 -0.11531129 -0.032864023
000290 7b a5 a3 3d 08 97 0d 3b db b5 e6 bd 99 b5 a3 bc
       0.07990547 0.0021604914 -0.11265155 -0.019984053
0002a0 da 83 16 3e 3f c2 8a 3d b6 d2 3a 3d 75 d3 84 bd
       0.14698735 0.06775331 0.045611106 -0.06485645
0002b0 8a 2b ad bd 0a f1 87 bd 65 c1 00 3e 0b 97 aa 3b
       -0.0845557 -0.066377714 0.12573774 0.005205994
0002c0 d2 8f a7 3c f5 d1 06 3d ae e1 bd 3d 7e 8f f8 3d
       0.020454321 0.032915074 0.092715606 0.12136744
0002d0 0e e3 45 3e 72 a4 25 3e 44 28 17 3d 5d bc e2 3d
       0.19324896 0.16176012 0.036903635 0.11071084
0002e0 05 c6 1b 3d 62 42 d2 3d c8 dc 3b 3e ca 47 31 bd
       0.038030643 0.10266568 0.1834594 -0.043281354
0002f0 03 de 7b bd 7d 02 34 be d5 ee db 3d 15 38 a1 bd
       -0.061491024 -0.17579074 0.10738913 -0.07872025
000300 6e 0c fb 3d 92 61 e0 3d c5 b5 b0 bc 8a c0 0f 3d
       0.1225823 0.1095611 -0.02157105 0.03509573
000310 80 93 92 3d d0 31 83 3c b4 a1 12 3e a3 39 f5 bd
       0.0715704 0.016014963 0.14319497 -0.11973884
000320 2e 7d b9 3d 19 e6 01 3e 12 5e fb 3d 1d 3c 33 3d
       0.09057079 0.12685432 0.12273802 0.0437585
000330 10 c9 fc 3d e1 59 9e 3c 64 17 bf 3d 84 d2 95 b9
       0.12343037 0.019329967 0.09330633 -0.0002857634
000340 dc e4 cf 3b 3e 04 57 bd 92 b2 2a bd 48 fc 49 be
       0.006344421 -0.05249428 -0.041674204 -0.19725144
000350 72 9b 9d 3c 82 7a 46 bd 53 17 f6 3d a6 95 33 3e
       0.019239161 -0.048456676 0.120161675 0.17537555
000360 74 0f cf bb 78 84 15 3e 75 b7 9c 3d d1 1f ec bd
       -0.006318981 0.14601314 0.07652179 -0.11529506
000370 5e fb d8 3b f0 51 24 be aa 5f 30 be 23 67 a1 3c
       0.006621762 -0.16046882 -0.17223993 0.0197025
000380 20 7b c9 bd 0c 7c 9e 3c 97 77 23 3d d5 06 1b 3e
       -0.09837937 0.01934626 0.03990897 0.15139325
000390 ce cd 35 bd e5 4e 1c 3e 6c ff aa 3c 40 87 1d 3c
       -0.044385724 0.15264471 0.020873748 0.009614766
0003a0 71 d9 0a 3e e0 d6 ab 3d a3 df 14 be e5 27 2f be
       0.1355951 0.083905935 -0.14538436 -0.17105062
0003b0 f7 f2 a3 3d f8 f2 80 bc 97 33 bd 3d a8 65 da bd
       0.08005326 -0.015740857 0.092383556 -0.10663921
0003c0 b8 b1 28 3e d2 e9 ca 3b 77 89 67 3d 41 2b d5 bb
       0.16474044 0.0061924243 0.05652758 -0.0065054004
0003d0 c6 9d f4 3d 1e fd a8 bd 33 74 2f 3d 13 ec 3c 3c
       0.119441554 -0.08251403 0.042835426 0.011530894
0003e0 3e 54 22 be 72 fb 01 be 99 2a a6 3d 99 e7 ee bd
       -0.15852448 -0.12693575 0.081135936 -0.116652675
0003f0 9e eb d0 3d 02 75 29 be 61 f7 6a bd 74 7c 29 3e
       0.102011904 -0.16548541 -0.057364825 0.16551381

model/batch_normalization_4/batchnorm/mul:0 f4 [1, 64, 1]
000000 7f fb 99 3f 7d 13 a2 3f 01 ce 9d 3f 4f 1f 95 3f
       1.2029876 1.2662197 1.2328492 1.165018
000010 53 fd b4 3f 8c d3 b5 3f 64 b1 a1 3f 11 17 9e 3f
       1.4139808 1.4205184 1.263226 1.2350789
000020 d5 73 9c 3f ea 53 a6 3f a4 f6 93 3f b1 cd af 3f
       1.2222849 1.2994359 1.1559644 1.3734647
000030 54 e7 9e 3f 2a 2f 97 3f c6 3c ad 3f 36 47 9e 3f
       1.2414346 1.1811268 1.3534172 1.2365482
000040 4b ad a2 3f ca 88 a5 3f 69 60 93 3f 82 6a 90 3f
       1.2709135 1.293237 1.1513797 1.1282504
000050 e7 f1 9a 3f 0c 94 ab 3f 7a 8c aa 3f 48 2a 7d 3f
       1.2105073 1.3404555 1.332412 0.9889264
000060 bc 38 9b 3f 49 a7 9f 3f a4 01 62 3f dc f6 a0 3f
       1.2126689 1.2472926 0.88283753 1.2575336
000070 92 f4 9a 3f 58 58 a1 3f ef 99 a6 3f ab 35 9f 3f
       1.2105887 1.2605085 1.3015727 1.2438253
000080 be 11 96 3f 84 f6 68 3f e3 40 98 3f 01 4a 96 3f
       1.1724164 0.91001153 1.1894802 1.1741334
000090 71 7f a7 3f ba a4 a1 3f 0e f8 b2 3f ba 7c ab 3f
       1.3085767 1.2628396 1.398195 1.3397439
0000a0 3b 27 b9 3f c3 28 c9 3f 79 68 85 3f bd fa c1 3f
       1.4465097 1.5715564 1.0422508 1.5154644
0000b0 45 9d 92 3f 94 0a db 3f 86 38 96 3f ce 47 90 3f
       1.1454245 1.7112603 1.1736 1.1271913
0000c0 7c 52 c1 3f 28 11 9e 3f 50 f0 b5 3f b7 47 9f 3f
       1.5103297 1.2348986 1.4213963 1.2443761
0000d0 22 e8 ae 3f d9 53 b0 3f fa a5 b6 3f e8 2b 97 3f
       1.3664591 1.3775588 1.4269402 1.1810274
0000e0 a2 ae c7 3f 80 df 93 3f 4a b6 91 3f e7 47 7d 3f
       1.5600169 1.1552582 1.1383755 0.9893784
0000f0 c7 ee 86 3f 43 6c ad 3f 4d ad c3 3f 14 53 a7 3f
       1.0541619 1.3548664 1.5287262 1.3072228

model/batch_normalization_3/batchnorm/mul:0 f4 [1, 64, 1]
000000 e3 08 88 3f 68 4e c6 3f 2d 38 86 3f 0f 69 9c 3f
       1.0627712 1.5492678 1.0485893 1.2219561
000010 a7 60 7a 3f f3 dd 76 3f 80 76 98 3f da 20 a8 3f
       0.9780373 0.9643242 1.1911163 1.3135026
000020 e8 e9 65 3f 08 10 8a 3f b4 86 70 3f d2 17 a6 3f
       0.8981004 1.0786142 0.9395554 1.2976019
000030 46 1a 47 3f aa fe 9b 3f 8e 36 52 3f e4 e1 a6 3f
       0.77774465 1.2187092 0.82114494 1.3037686
000040 ee 0f 3d 3f 2e 78 94 3f d4 27 88 3f ee 29 b8 3f
       0.7385243 1.1599176 1.0637155 1.4387796
000050 f3 90 61 3f 60 2a c6 3f 96 7c 9f 3f 04 fe 81 3f
       0.881118 1.5481682 1.2459896 1.0155644
000060 b5 96 81 3f 81 d8 9c 3f 97 29 9b 3f de b0 a9 3f
       1.0124117 1.2253572 1.2122067 1.32571
000070 09 0c 8e 3f 8d 94 8d 3f 49 23 b8 3f f4 a0 94 3f
       1.1097423 1.1060959 1.4385768 1.1611619
000080 a7 14 60 3f 5d 1f 69 3f 92 3b aa 3f 5a 5e a6 3f
       0.8753151 0.9106348 1.329943 1.2997544
000090 55 76 a1 3f b1 84 a5 3f e2 be 9f 3f ce 39 70 3f
       1.2614237 1.2931119 1.2480128 0.938382
0000a0 9e d8 7f 3f 35 85 7f 3f e7 52 8a 3f e1 23 92 3f
       0.99939907 0.9981263 1.080655 1.1417199
0000b0 4c 7f ac 3f e6 21 99 3f 7e b6 b1 3f 5b ec 92 3f
       1.3476348 1.196347 1.3883817 1.147838
0000c0 24 99 90 3f 81 85 9d 3f 80 5f 8b 3f c1 61 84 3f
       1.1296735 1.2306367 1.0888519 1.0342332
0000d0 b0 d7 87 3f 19 2d 8e 3f 4f 9a 83 3f 00 87 8d 3f
       1.0612698 1.1107513 1.0281466 1.1056824
0000e0 fc fb 91 3f 19 30 92 3f a4 7d 41 3f be 76 a0 3f
       1.1405025 1.1420928 0.7558234 1.2536237
0000f0 2b 6d 97 3f 0c 58 68 3f 9a 12 9d 3f e6 2e 80 3f
       1.183019 0.9075935 1.2271302 1.0014312

model/batch_normalization_2/batchnorm/mul:0 f4 [1, 64, 1]
000000 78 2f d1 3f 2a 75 ed 3f 34 cd c4 3f dd e7 bf 3f
       1.6342611 1.8551381 1.5375123 1.4992634
000010 13 e3 a8 3f 80 74 bc 3f 79 3a b7 3f 1a 83 97 3f
       1.3194298 1.4723053 1.431472 1.1836884
000020 2d 61 bd 3f 81 f9 ca 3f 3b 39 c1 3f 75 d1 6e 3f
       1.4795281 1.5857393 1.509559 0.93288356
000030 90 5b 0e 40 68 a1 c1 3f 58 11 94 3f b0 6e bb 3f
       2.2243385 1.5127382 1.1567793 1.4643154
000040 d2 17 b3 3f 3a 2d fc 3f 32 87 8f 3f 8f 14 ca 3f
       1.3991644 1.9701302 1.1213133 1.5787524
000050 ea d7 d3 3f 7c a9 ca 3f 86 ad a9 3f 17 ec b9 3f
       1.6550267 1.5832973 1.325608 1.4525174
000060 ad b5 9b 3f ab 6e c9 3f 33 7d c0 3f b6 57 b9 3f
       1.2164818 1.5736898 1.5038208 1.4479892
000070 32 a0 db 3f 6f 42 8f 3f de a6 b1 3f 76 a6 a2 3f
       1.7158263 1.1192149 1.3879049 1.270705
000080 41 1a a2 3f 62 c0 ae 3f 06 54 8c 3f 3f 62 b4 3f
       1.2664262 1.365246 1.0963142 1.4092482
000090 50 cb aa 3f 95 c2 b3 3f 16 34 b4 3f 32 ce a0 3f
       1.3343296 1.4043757 1.4078395 1.2562926
0000a0 6c 46 a4 3f 9e be d1 3f 75 25 a1 3f 64 ab ca 3f
       1.2833991 1.6386297 1.2589556 1.5833554
0000b0 e3 2e c6 3f 6b 07 b8 3f 82 d3 a0 3f a2 4f cf 3f
       1.5483059 1.4377264 1.2564547 1.6196177
0000c0 0d d1 b0 3f 68 f1 cd 3f 22 25 b8 3f 02 9d e9 3f
       1.3813797 1.6089296 1.4386332 1.825104
0000d0 21 12 52 3f e1 23 e1 3f 0f 39 0a 40 fa 47 98 3f
       0.8205891 1.7589074 2.1597326 1.1896966
0000e0 8a 23 df 3f a7 22 bf 3f 4e a7 cf 3f 64 fd 84 3f
       1.7432721 1.493245 1.6222932 1.0389829
0000f0 ed da c6 3f 54 21 83 3f 81 c4 d0 3f b4 64 d8 3f
       1.5535561 1.0244546 1.6309968 1.6905732

model/batch_normalization_1/batchnorm/mul:0 f4 [1, 32, 1]
000000 8c 3a bf 3f ba 54 7f 3f 5a bf b5 3f 99 17 5f 3f
       1.4939742 0.9973866 1.4199021 0.8714538
000010 2d 6d b9 3f 02 ec c8 3f d5 17 47 3f d3 ec 98 3f
       1.4486443 1.5697024 0.7777074 1.1947273
000020 82 ae 8a 3f 33 4b b3 3f 99 aa 90 3f f0 80 92 3f
       1.0834506 1.4007324 1.1302062 1.1445599
000030 5d 2a e9 3f df fa 9c 3f f9 c0 97 3f 71 09 b8 3f
       1.8216053 1.226406 1.1855766 1.4377881
000040 91 96 4b 3f 6d fe 82 3f 4b 18 dd 3f cf b8 ac 3f
       0.7952662 1.0233895 1.7273039 1.3493899
000050 fd 81 01 40 ee 22 87 3f 98 9f 55 3f 41 42 bb 3f
       2.0235589 1.0557535 0.83446646 1.4629594
000060 5a ac 49 3f 81 80 a5 3f 44 9f 8d 3f 57 c8 c7 3f
       0.7877861 1.2929841 1.1064229 1.5608014
000070 41 7e 94 3f f1 f9 e4 3f c8 80 c8 3f 7e 70 b5 3f
       1.160103 1.7888776 1.5664301 1.4174955

model/batch_normalization/batchnorm/mul:0 f4 [1, 16, 1]
000000 e7 e4 48 3f db 8d 28 3f b7 32 5e 3f 02 65 e1 3e
       0.7847428 0.65841454 0.86796135 0.44022375
000010 0a 83 83 3f e2 80 13 3f ec 94 3f 3f 6e 31 61 3f
       1.0274365 0.57618535 0.7483661 0.8796605
000020 4c a5 1d 3f 26 4a c1 3e d8 94 69 3f 0a fe 32 3f
       0.6158035 0.37751883 0.9124274 0.6991888
000030 a5 8a 4c 3f 03 70 46 3f e4 b5 1e 3f 7b 36 41 3f
       0.79899055 0.77514666 0.61996293 0.75473756
