model_files/alexnet_1d_ptbxl.onnx (onnx, 142546 bytes, 12 tensors)

classifier.weight f4 [5, 64]
000000 00 bf 0f 3d 52 c4 c7 bc af fb 19 3e 67 22 f6 bd
       0.03509426 -0.024385605 0.15037416 -0.120182805
000010 a8 c8 db bd c6 39 02 be 6a 74 85 bd 66 8a f8 bd
       -0.107316315 -0.12717351 -0.06516345 -0.121357724
000020 0f 2e 5a bd 72 6f e0 b9 2c 49 90 3d 77 ae 8b 3d
       -0.05326658 -0.00042807643 0.070452064 0.06820386
000030 53 c2 dd bc 63 b1 3c 3e 79 51 28 3e 28 e5 b3 bd
       -0.0270702 0.18427043 0.1643733 -0.087839425
000040 84 09 fb bd 16 30 1d be 96 d6 1e 3c 15 8a 26 3e
       -0.12257674 -0.15350375 0.009694716 0.16263612
000050 f6 80 2f 3e e4 8b fe 3d 5b 84 02 3e f5 e0 1c 3e
       0.17139038 0.12429026 0.12745802 0.1532019
000060 9e 4d 33 bd 6f 36 f7 3d 6f f0 68 3d 5d 2b dd 3c
       -0.043775193 0.12070929 0.05686992 0.026998216
000070 9e 13 22 3e ee d2 bd bd 0c 1b 49 3d 93 1d 45 3d
       0.15827796 -0.09268747 0.04909806 0.048123907
000080 e9 ed ec bd ca ac 01 be 7b 38 fe 3c 4d c8 f1 bd
       -0.11568815 -0.1266357 0.031032791 -0.118057825
000090 54 d4 40 bb 98 cd 63 bd c9 f9 07 be 89 5c f9 3c
       -0.0029423432 -0.05561599 -0.13278879 0.030439632
0000a0 fb e4 a1 3d 39 9b 29 ba bd d7 bd bd 75 39 10 3e
       0.07905003 -0.00064699684 -0.092696644 0.14084418
0000b0 83 d4 1e 3e a5 07 db 3d 56 c7 3a 3c d8 0f c3 3c
       0.15510754 0.106948175 0.011400064 0.023811266
0000c0 3c 9e 06 be d9 3a ad 3d d6 80 00 be 8c 6a 1b be
       -0.13146299 0.0845849 -0.12549147 -0.15177363
0000d0 c0 73 fc 3d 75 6b 1b 3e 25 3f 97 3d df 30 26 3e
       0.12326765 0.1517771 0.07385091 0.1622958
0000e0 ae 85 be bd 76 b1 c6 bd fa 1b b7 bb 4a a4 7d bd
       -0.09302841 -0.09701817 -0.005588052 -0.061924256
0000f0 ca a6 2e bc df f1 83 bd bc be c8 bd 50 9b 99 bd
       -0.010659883 -0.064426176 -0.09802005 -0.07500327
000100 40 8c 93 bd 65 3a 2b 3c 34 d9 47 3d 20 a4 31 bd
       -0.07204485 0.010450934 0.048791125 -0.043369412
000110 97 86 04 3e c0 5e 66 3c cc 3e 0f be 83 bd 46 3e
       0.12941967 0.014060676 -0.13988799 0.1940823
000120 22 4d 18 3d aa a4 51 be c2 dd 60 bd 66 d7 82 be
       0.037182935 -0.2047297 -0.054898985 -0.2555496
000130 33 ce 11 bd 9c 95 3c 3c 39 a5 3f 3e 5f d6 47 3e
       -0.035597038 0.011510279 0.18715371 0.1951537
000140 50 7a 41 bd 4c 6a 19 3e 16 21 17 be 62 e8 fd bc
       -0.047235787 0.14981955 -0.14758715 -0.030994598
000150 7f a4 da 3d ab 23 33 be a0 6f 98 3d a5 bf 1f be
       0.106759064 -0.17494075 0.07443166 -0.1560045
000160 b0 b2 51 3e 5c b7 c8 bd ed 0e 84 be 08 33 58 be
       0.2047832 -0.09800598 -0.25792637 -0.21113217
000170 7d d6 f1 3d 7b 1d 5b be fd 6c 91 be 4e 3b c0 bd
       0.118084885 -0.21397965 -0.28403464 -0.093863115
000180 5f 08 f9 3d 3b 0e 4e be 1d 5b 35 be a6 51 29 3e
       0.121598 -0.20122616 -0.17710538 0.16535053
000190 01 20 05 be 99 37 65 3d 2f 24 c5 bc a3 4b 19 bc
       -0.1300049 0.055961225 -0.024065105 -0.009356412
0001a0 f8 06 12 3e 62 3c 48 be d6 9a 42 be 06 18 48 bb
       0.14260471 -0.19554284 -0.19004378 -0.0030531897
0001b0 33 40 f5 bd 04 99 89 be a8 7d 56 be 19 e9 c1 bd
       -0.11975136 -0.26874554 -0.20946372 -0.09468288
0001c0 62 0c 58 3d f5 ad b9 3c 35 7c c3 3d 83 39 d6 bd
       0.052746184 0.022665957 0.09545175 -0.10460188
0001d0 b0 06 05 3e a9 b8 2d 3d dc 38 3e be 3a 39 95 3d
       0.12990832 0.042412434 -0.18576378 0.07286306
0001e0 9c 8f 12 3e a0 8f 85 be 31 d5 10 3e bc f5 de bd
       0.14312595 -0.2608614 0.14143826 -0.10886714
0001f0 43 77 c1 3d 5a 0f 8a 3d e9 eb 7a be 03 3d bb 3d
       0.094465755 0.06741209 -0.24504055 0.091424964
000200 64 3e 3d be 45 cb 2a 3e 7d e5 4f be 8b 8f 52 3d
       -0.18480831 0.16679104 -0.20302387 0.051406424
000210 eb 71 4f be 9a 1f c5 bd 9e 45 1b 3e 11 03 d2 bd
       -0.202583 -0.09625168 0.15163276 -0.10254491
000220 75 c2 1c be 12 96 4d be 9d b6 99 3d a6 f8 e4 3d
       -0.15308554 -0.20076779 0.07505534 0.111802384
000230 74 8c ae bc b7 66 3a be d7 cb b4 3d be 7b 19 bb
       -0.021307208 -0.18203245 0.08827942 -0.0023419703
000240 dc cf d6 bd 17 12 83 3b aa b5 61 be 6d a7 0e 3c
       -0.10488865 0.003999959 -0.22041956 0.00870691
000250 45 d2 dd bb e9 ff 8f 3d 71 35 13 be 56 d9 89 bc
       -0.006769451 0.07031233 -0.14375855 -0.016827267
000260 d3 74 38 be a1 54 dd 3d 2d 35 46 be 10 a3 b4 3c
       -0.18013315 0.10807157 -0.19356222 0.02205041
000270 9e db 5e 3d 2c 3d 80 3b 93 44 27 3e 78 89 b0 bd
       0.054408662 0.0039135423 0.16334753 -0.0861997
000280 5c 32 66 3d 0d e7 c7 3d ca 8f 04 be 16 e1 f1 3c
       0.05620037 0.09760866 -0.12945476 0.029526275
000290 26 c1 08 3e 30 23 10 3e 5a de 0e be 15 25 19 3d
       0.1335493 0.14075923 -0.13952008 0.03738888
0002a0 a8 93 8f 3d ce 73 a9 3c 96 92 d8 bb 99 74 0d 3e
       0.07010585 0.020685103 -0.0066092713 0.1381401
0002b0 15 84 9a bd 0b b5 cb 39 9d c0 60 be 97 e3 db 3d
       -0.07544724 0.00038854065 -0.21948476 0.10736769
0002c0 dd f6 65 be 14 ef 46 be 31 90 1b be b3 f1 ef 3c
       -0.22457452 -0.19427139 -0.15191723 0.029290056
0002d0 fd e7 b3 bd cd 0f bc bd b5 01 95 bd a8 5f 18 bd
       -0.08784483 -0.09182701 -0.07275716 -0.0372006
0002e0 1a 73 1a be de 1d 28 be 65 cb 85 3d 8a 6b 52 3d
       -0.1508297 -0.16417643 0.06532935 0.05137209
0002f0 ac a5 7a be da 14 5b be 82 55 4a 3b 77 e3 9c bd
       -0.24477261 -0.21394673 0.003087372 -0.07660573
000300 4c f2 ab 3d 03 aa bd bd 2f f8 10 3d 58 d0 9d 3c
       0.08395824 -0.09260943 0.035392936 0.019264385
000310 67 40 06 3d fd 49 10 be f8 9d f1 bd 34 6a f1 bd
       0.032776263 -0.14090724 -0.11797708 -0.11787835
000320 35 e1 d0 3d 09 9f ed 3d d9 66 f1 bd 1d ff c5 3d
       0.10199205 0.11602599 -0.11787195 0.096677996
000330 59 7a 23 3e c3 7f 79 3d 99 bb dc bd a4 e8 98 bc
       0.1596464 0.06091286 -0.10777969 -0.01866562
000340 9d 30 d1 3d 54 69 d1 3d 28 91 d0 3d c2 71 08 be
       0.102143504 0.10225168 0.10183936 -0.13324645
000350 84 11 b8 bd 6e 43 1c be 66 cf 54 be 74 b3 8a bd
       -0.08987716 -0.15260097 -0.20782241 -0.06772509
000360 96 83 1c be 70 39 82 3d 4b cd 69 bc 3d da f8 bd
       -0.15284571 0.063586116 -0.014270137 -0.12151001
000370 c5 33 c5 bc e7 b8 3a be 23 3d 80 bd c2 b6 0a 3e
       -0.024072537 -0.18234597 -0.06261661 0.13546279
000380 a0 1a 0f be b5 c2 df 3d 27 1f c8 bd 9d 57 b4 3d
       -0.13975 0.10925809 -0.09771567 0.088057734
000390 fd ca 24 be 9f f1 c6 bc 7c ab 8c bd 12 8c 56 be
       -0.16093059 -0.024285136 -0.068686455 -0.2095187
0003a0 00 a8 36 3e c5 89 63 3e 4b 9e f8 bd fc 5e df 3d
       0.17837524 0.22220524 -0.12139567 0.10906789
0003b0 ab 28 40 be 99 6e be 3b 68 47 54 3e e8 3d eb bc
       -0.18765514 0.005811524 0.20730364 -0.028716043
0003c0 8c f0 66 bd 59 2a 6e bc 19 af 35 be 5d 36 0e 3c
       -0.056381747 -0.014536464 -0.17742576 0.008679953
0003d0 50 7a 28 bd e8 a9 84 bb 56 9b 2a be da 20 93 3b
       -0.04113227 -0.0040485747 -0.16660818 0.00449
0003e0 b7 ac 03 3e 98 62 1b 3e c4 85 37 be 2d 34 d4 3d
       0.12858854 0.1517433 -0.17922121 0.10361514
0003f0 e2 3a f9 bd 7f f8 41 3d bb 82 15 3e 79 da 13 3e
       -0.12169434 0.047356125 0.14600651 0.1443881

classifier.bias f4 [5]
000000 9d 77 bb 3d 15 81 a7 bd 96 46 f5 3c 62 e4 67 3d
       0.09153674 -0.08178917 0.029940885 0.056614287
000010 d9 55 c6 bd
       -0.09684343

61 f4 [16, 8, 11]
000000 83 ea 6e bd 25 f5 1e 3d 97 03 16 be 2a 5f 87 bd
       -0.058329117 0.038808007 -0.14649807 -0.06609948
000010 60 dd 0c 3c d9 95 f0 bd d9 18 20 3c 0a e3 39 be
       0.008597702 -0.11747331 0.009771549 -0.18153015
000020 06 8f 15 bd eb d9 41 be a5 e9 35 bd 37 27 d7 3d
       -0.03651335 -0.18930785 -0.044412274 0.105055265
000030 b2 89 dc 3d c0 ba 8a 3d 74 b4 db 3c 73 54 c5 3d
       0.10768451 0.06773901 0.026819445 0.09635248
000040 49 f0 b0 3c 08 63 26 3c 02 52 30 3d 07 fb 08 3d
       0.021598952 0.010155447 0.04304696 0.033442523
000050 62 f4 40 3c c2 10 79 bd 73 a0 96 3d 6a 88 2b 3e
       0.011777015 -0.060806997 0.07354822 0.16751257
000060 76 27 8a 3e 2f 01 32 3e 76 d9 83 3e 76 2c e1 3c
       0.2698323 0.17383264 0.25751847 0.027487021
000070 25 1a 34 3d 3b 83 0d 3b 88 f6 95 3d b4 51 3f bd
       0.043970246 0.0021593112 0.07322413 -0.046708778
000080 1e 2c 67 bb 81 ee d4 bb cd cd 50 3d be 53 1f 3d
       -0.0035274099 -0.0064981584 0.050977517 0.038898222
000090 97 c9 69 bd e6 7e 71 bd 5a 25 29 3d 90 20 23 3d
       -0.057077017 -0.05895891 0.041295387 0.039825976
0000a0 40 89 98 bd 7c 40 ed bc f9 c7 05 bc a4 29 3d bd
       -0.07448053 -0.028961413 -0.008165353 -0.04618229
0000b0 14 9e 23 bd f2 61 b4 bc 9e f2 81 bb 5e b2 a2 bc
       -0.039945677 -0.02201936 -0.00396569 -0.019860443
0000c0 53 ae 69 bd 05 2b 31 3d c7 b6 7b 3c fc 1e 99 3d
       -0.057051014 0.043253917 0.015363402 0.07476613
0000d0 1b c0 aa bc a9 f4 1a bd e6 ab 90 bc 3f 94 64 ba
       -0.020843556 -0.037830982 -0.017660093 -0.00087196
0000e0 f1 1b 26 3b fa cd 37 bd dd 49 a2 3d f3 bc 24 bd
       0.0025346244 -0.04487417 0.079242446 -0.04021926
0000f0 a9 bd d8 3b b2 73 c0 3d bc 7b 1d bd 47 94 06 bd
       0.006614406 0.09397067 -0.03844808 -0.032856252
000100 85 05 c4 3d 02 82 a5 bc b7 78 b8 3d 31 f8 82 bd
       0.09571365 -0.020203594 0.090073995 -0.06394995
000110 f2 99 a8 bd e6 03 ae 3c b9 bb 62 bd 12 fd 4d bd
       -0.08232488 0.021242093 -0.055354808 -0.050290175
000120 2d d3 3d bd dd 78 6a bd 0f 55 9f bb 6b cf 62 bb
       -0.04634397 -0.05724417 -0.0048624347 -0.0034608494
000130 79 cf 47 3d 76 81 30 bd e6 04 5d 3d 19 7b 9e bd
       0.048781846 -0.043092214 0.05395975 -0.07738323
000140 20 20 0e 3c 57 c7 e4 3c db 4f 11 bd c7 30 54 bd
       0.008674651 0.027927084 -0.035476547 -0.05180433
000150 97 b7 5b 3c 21 9c 21 3d 63 82 ce bd 34 bd 86 bd
       0.01341047 0.039455537 -0.10083463 -0.065790564
000160 00 a9 a6 3a 07 4e 07 bd d3 df 09 3d c0 8c 5a bb
       0.0012715161 -0.033033397 0.03366072 -0.0033348054
000170 9e 60 53 3d ee 38 43 bc c5 b8 b2 3b 9c 54 d5 bc
       0.051605813 -0.011915429 0.005454155 -0.026041321
000180 55 d5 b2 3c c1 5c 1e bd 50 fd f8 bc 97 48 e8 bc
       0.02183024 -0.038662676 -0.030394226 -0.028354926
000190 5a dd e2 3c e6 e4 3b bd 6d af a9 b9 d9 de e0 bc
       0.02769344 -0.04587259 -0.00032364894 -0.027450012
0001a0 ee e9 60 bc 65 be 3c 3d c8 50 ac 3c be 06 36 bd
       -0.013727648 0.046080012 0.021034613 -0.044440024
0001b0 7e 57 ad 3b a3 f8 bb 3c 2c 0c 08 3d e6 05 b0 3c
       0.005289971 0.022945708 0.033214733 0.021487188
0001c0 35 73 4a 3d 92 3c e7 3c 3d da db 39 5a 8a 91 bc
       0.049426276 0.028227124 0.00041933535 -0.017766166
0001d0 07 51 bc 3a 9c 0d 4f 3d 60 90 77 3d 7c 29 8f 3c
       0.001436741 0.05055009 0.06044042 0.017475836
0001e0 8e fc 95 3d 44 f2 c0 3d 32 d0 ac 3d 9c ae 47 3d
       0.073235616 0.094212085 0.084381476 0.048750505
0001f0 e0 0f a5 3c 7e e1 87 3b 1c 6a cd 3c 5c f5 cb bb
       0.020149171 0.004146754 0.025075011 -0.0062243175
000200 4d 16 91 bc a5 6a 58 3d 0f bc e8 bc 74 6a ac 3c
       -0.01771083 0.05283608 -0.028409986 0.021046855
000210 1b 82 dd 3d b9 ec 24 3d 5f 3b 25 3d 77 69 3e 3d
       0.10815831 0.04026482 0.040339824 0.046487298
000220 6c 85 4a 3d 52 7a 79 bc af 8e c0 3b 91 b5 3e 3d
       0.049443647 -0.015226917 0.005876384 0.046559874
000230 8e 5f 9a 3c 40 e9 32 bc 07 f2 31 3d 8d f7 80 3d
       0.018844392 -0.010919869 0.043443706 0.062972166
000240 fd c5 59 3d 6b 41 98 3c 9e 07 43 ba 68 ba 60 3d
       0.053167332 0.018585881 -0.0007439795 0.05486527
000250 cd bb 7d 3d 99 a1 53 3d e9 32 c3 bc 2f f9 57 3d
       0.06194668 0.051667783 -0.023827987 0.052727874
000260 e1 e1 f4 3c 72 60 2e 3c 42 28 9e bc 17 20 42 3d
       0.029892864 0.010643112 -0.019306306 0.047393885
000270 5a e5 07 3d 2c 0c ca 3c be 3f 04 bc f2 e8 07 3d
       0.03317771 0.024664007 -0.008071838 0.03318114
000280 de d0 8e bc 1d 94 9a 3c 3f c6 77 3c c4 76 56 bb
       -0.01743358 0.018869454 0.015122949 -0.0032724598
000290 e3 03 8c bc f9 56 08 3c 93 cf 67 3c 2c 17 cf bb
       -0.017091697 0.008321517 0.014148611 -0.006319901
0002a0 b1 64 04 bd c8 db 5e bc 81 99 69 3c 2e 75 a8 3c
       -0.03232259 -0.013602205 0.01425779 0.020563688
0002b0 8e 81 f4 3b 56 bd 6a 3c 88 89 a7 3c cd ff b5 3c
       0.007461733 0.014327368 0.020451322 0.022216702
0002c0 39 27 6d bd 57 ee 0d 3e cc c1 c9 bd 89 8c 0b 3c
       -0.057898734 0.1386045 -0.09851417 0.008517393
0002d0 12 cb 21 be 68 48 f1 3c d9 eb 99 bd bd b5 5f be
       -0.15800121 0.029453471 -0.075156875 -0.21846671
0002e0 40 76 1f be 99 b7 ff bd 06 db 70 be 10 06 4e 3e
       -0.15572453 -0.1248619 -0.23521051 0.201195
0002f0 13 83 8d 3e d9 46 6b 3e 63 c4 4f 3e ac 48 45 3e
       0.27639064 0.22976245 0.2028976 0.19266003
000300 8b 87 b8 3d a1 18 08 bd e2 74 df 3c 5c cf 28 3b
       0.09010228 -0.033226613 0.027277414 0.0025758361
000310 8f 83 7b 3d 7c f5 90 bd 32 81 60 bd f5 cc 35 bc
       0.06140476 -0.070780724 -0.05481071 -0.011096229
000320 7d e7 ab 3d 37 e1 e7 bd d2 62 b2 3d f7 bb 8c bd
       0.08393762 -0.11322253 0.08710255 -0.06871789
000330 5a e6 83 bd 5f 13 b1 bd 54 53 a9 bc 85 77 ef 3d
       -0.064404204 -0.08646273 -0.020669617 0.116927184
000340 d1 e2 a0 bd 7b 49 dd bd 6d 33 98 bd 53 94 41 bc
       -0.07855762 -0.10805031 -0.07431684 -0.011815148
000350 0a 53 da 3d d2 cc 50 3d 5f be ed 3d 50 97 d7 3d
       0.1066037 0.050976582 0.11608576 0.105269074
000360 d0 61 04 bd 7b 9f 93 bd c9 35 0e bc ca 0a a1 bd
       -0.032319844 -0.07208153 -0.008679816 -0.07863386
000370 5e 7a 88 bc 81 cc e9 3d 4a f3 2f 3d 16 e4 69 3d
       -0.016659912 0.11415959 0.042956628 0.057102285
000380 92 74 07 bd 0b 01 c7 bc 1c eb aa bd 73 81 d9 3d
       -0.033070154 -0.02429249 -0.08345625 0.106203936
000390 b3 d9 2c bd d8 6c ad 3c 5b 93 0d 3d ac e4 be 3c
       -0.0421998 0.021170065 0.034564357 0.023302399
0003a0 2f d1 2c 3e 2d a7 a7 bc da 94 95 3d 61 ab 9f bd
       0.16876672 -0.020465458 0.07303782 -0.0779636
0003b0 11 ac 90 bd 6c 1d 7f bd d4 ad af 3d b9 87 c1 3d
       -0.07064069 -0.06228392 0.08578077 0.09449715
0003c0 34 ea 04 3e 2c d1 cf 3d 16 56 ef 3d 32 a2 f5 3b
       0.12979966 0.10147318 0.116863415 0.007496142
0003d0 ba f0 80 3d 89 6e ec bd 8e e9 ca 3d 96 58 d1 bd
       0.06295915 -0.115445204 0.09907828 -0.102219746
0003e0 45 78 45 bd 3a 8b 4b 3c f9 e5 91 bb f5 a7 04 bd
       -0.0482104 0.012423331 -0.0044524637 -0.03238674
0003f0 21 05 26 3e 15 29 5b bc 33 cf 35 bc 5f 6c 15 bc
       0.16212894 -0.013376494 -0.011096763 -0.009120076

62 f4 [16]
000000 2e ce 11 3d be c8 9f 3d ea 4a ba 3d f5 a1 8a 3d
       0.03559702 0.078019604 0.0909632 0.06769172
000010 da bc b5 bc ea bf 40 3e 19 b9 79 bc ad 60 88 bd
       -0.022184778 0.1882321 -0.015241885 -0.066590644
000020 57 72 57 3d 2d 83 ab 3d 7f 0c 9b 3d 6a 3a 45 be
       0.052599277 0.08374629 0.07570743 -0.19260564
000030 ab 9e cf 3d 09 ea 3e 3e dc 4c 8a bd e5 a6 4d bb
       0.101376854 0.18643965 -0.06752941 -0.0031379994

64 f4 [32, 16, 5]
000000 ef 1b 15 3d 35 4b ce bc e2 ca 8c 3d 66 c0 b0 bd
       0.036403593 -0.025182346 0.06874634 -0.08630447
000010 2b 93 a0 bd 46 6a 9f bc bd 68 08 be 49 93 eb bd
       -0.0784057 -0.019459855 -0.13321204 -0.11502702
000020 f1 29 06 be 12 e1 ef bc e7 83 0e be ee a1 00 be
       -0.13101937 -0.029282127 -0.13917504 -0.12561771
000030 53 73 e8 3c 36 fd 21 3d d2 e4 ae bd 27 87 02 3e
       0.028375303 0.03954812 -0.08539738 0.12746869
000040 dc df f9 bd d5 1c bf 3d c6 bd 88 3d ed 87 85 bd
       -0.12200901 0.09331671 0.066768214 -0.065200664
000050 dd aa 4e 3d dd eb 22 be c5 e7 0f 3e 24 8c 40 3d
       0.050455917 -0.15910287 0.14053257 0.04700865
000060 db 05 d0 bd 73 07 b5 3d a4 e0 1a 3e c4 f5 97 3c
       -0.10157367 0.088393115 0.15124756 0.018549807
000070 c0 cf 40 bd fa 4e 95 bd 8a e9 ac 3d 5e 83 52 bd
       -0.047073126 -0.07290454 0.084429815 -0.051394813
000080 63 af 23 be b8 4d ae bc ee 71 f8 bd 40 e2 0d be
       -0.15984873 -0.021277294 -0.12131105 -0.13855839
000090 dc 1f fc bd e4 8e 26 3e 29 b5 d2 ba 9c d3 41 3e
       -0.12310764 0.16265446 -0.0016075718 0.18928379
0000a0 ee 49 d1 bd cb 21 22 bd 1c 7f e3 bd 40 74 d0 bd
       -0.10219179 -0.03958301 -0.111082286 -0.10178423
0000b0 df 47 5e 3d 8d da 1b be fc f6 e2 bd d3 c8 5f be
       0.05426776 -0.1522009 -0.11082265 -0.21853952
0000c0 d1 59 a4 bd bc ce d7 3d 30 6c ff bd c8 2a 54 bd
       -0.080249436 0.10537478 -0.12471807 -0.051798612
0000d0 14 6b 06 3d d1 d8 1f 3e f9 7c b7 3c 88 05 e0 bd
       0.03281696 0.15610053 0.022398459 -0.10938555
0000e0 01 69 90 bd ad 72 9b 3d ee c7 1d bd 86 37 af 3d
       -0.07051278 0.07590232 -0.038520746 0.08555512
0000f0 90 c2 ad 3c d3 2f 35 3e a5 89 05 3d 12 d3 73 3d
       0.021210939 0.17694025 0.03260197 0.059527464
000100 77 2c 72 bd e4 87 a7 3d 14 03 e4 bd d9 0e 06 be
       -0.059124436 0.08180216 -0.111333996 -0.13091601
000110 66 c1 bf 3c d3 0c cc 3d ed a1 26 bd 1b 93 04 3c
       0.02340765 0.099633835 -0.04068177 0.008091713
000120 89 14 8f bd f8 02 0c be f6 1b f5 bd f7 e1 c7 ba
       -0.06986339 -0.13673007 -0.11968224 -0.0015249838
000130 84 ce d5 bd 7c 9f 18 be 9f 49 4d bb 99 4b b4 3b
       -0.1043978 -0.14904588 -0.00313244 0.005502176
000140 17 6c 86 be c4 ff 33 3c 28 d4 c4 bd bc f0 3a 3e
       -0.2625434 0.010986272 -0.09610778 0.18255895
000150 b8 73 28 3e 6c da 5c 3d e4 39 8d bd 81 a9 1d 3e
       0.16450393 0.05391924 -0.068958074 0.15396692
000160 75 a5 36 3e e7 4d 04 be 5c cd 57 be 86 3f 4a be
       0.17836554 -0.12920342 -0.21074432 -0.19750795
000170 4b 56 81 3d 6c ff 5c be 85 f7 9c 3d aa 34 1f be
       0.06315287 -0.2158181 0.07664398 -0.15547433
000180 a4 30 f5 bd 07 bd 84 bd 1c 73 2a be c8 22 94 be
       -0.11972168 -0.064813666 -0.16645473 -0.28932786
000190 f9 c0 d1 3d cd 29 4e be 13 10 ce bd 6b 90 55 3e
       0.10241885 -0.20133133 -0.1006166 0.20855872
0001a0 2a cf 33 3e 18 8f 85 bc 72 fc 25 3e 6c 8b 84 3e
       0.17559496 -0.016303584 0.16209581 0.2588762
0001b0 ee 8b da 3b 4d 6c 82 bd 16 2a 36 bc 62 ec ae bc
       0.006669513 -0.06368313 -0.0111184325 -0.02135295
0001c0 0b 94 10 be 7e d1 45 be 94 0d 88 be 80 aa 28 3d
       -0.14118974 -0.19318196 -0.2657286 0.041178226
0001d0 49 13 e6 bd f7 af 3d bb af 46 42 3e 4a 3c 3e be
       -0.11234147 -0.0028943995 0.18972276 -0.18577686
0001e0 40 77 f4 bd 7a 22 b2 ba 2a 21 00 bd b2 67 0b 3e
       -0.11936808 -0.0013590597 -0.031281628 0.13613775
0001f0 2e 44 95 3d 72 38 36 be 8e 2d da 3d 61 d6 8c bd
       0.07288395 -0.1779497 0.1065322 -0.06876827
000200 8c af 6d 3e ef 5f d5 3d aa 82 5e be fc cd 49 be
       0.23211497 0.104186885 -0.21729532 -0.19707483
000210 22 aa 0e be 26 d4 cc 3d 1f ce 12 be 71 be fa bc
       -0.13932088 0.100014016 -0.14336441 -0.030608388
000220 21 d9 27 3e 6d e9 26 3e 91 6d ef 3d b5 4b 25 be
       0.16391422 0.16299982 0.1169082 -0.16142161
000230 a4 20 9a 3d 0f 8b 2b be 29 63 14 3d b5 d1 0d 3e
       0.07525757 -0.16752265 0.03622738 0.13849528
000240 d7 05 7a 3d 14 32 6e bd 48 f1 ea bc 90 fb d3 3d
       0.061040726 -0.058153227 -0.028679505 0.10350716
000250 83 d0 2f be 10 6c 53 3d 3c 76 00 3e 40 72 04 3e
       -0.17169385 0.05161673 0.12545103 0.12934208
000260 06 0b a9 bc 62 6d 62 3e 80 8a 36 3e f6 31 ae 3d
       -0.02063514 0.22112039 0.17826271 0.08505623
000270 9c ae 81 bc 17 6b 41 3c 1c 44 c6 3c 93 03 02 bd
       -0.01583033 0.011805317 0.024202399 -0.03174169
000280 0d 09 2f 3e a0 1b b9 bd 07 58 57 be 73 b5 64 3b
       0.17093296 -0.09038472 -0.21029674 0.0034898191
000290 3b 6f 91 bd 62 60 1b bd 17 41 ea 3d 28 89 cb bc
       -0.07101294 -0.037933715 0.11438196 -0.024845675
0002a0 01 b9 37 be 93 ed f8 bd f6 b7 cd 3d ac c3 cd ba
       -0.17941667 -0.12154689 0.100448534 -0.0015698574
0002b0 a3 14 9b bd 37 23 bf bd 1e c0 21 3e 16 c8 20 be
       -0.075722955 -0.093328886 0.15795943 -0.15701327
0002c0 e8 c0 5d bc 48 64 65 be bc b7 be 3d 68 c6 45 3d
       -0.013534762 -0.22401536 0.09312388 0.048284918
0002d0 8e d1 98 3e fe 9b 7e 3e 45 8f 30 be 62 f5 12 3c
       0.29847378 0.24864194 -0.17242153 0.008969637
0002e0 91 a8 de bc 20 12 ab 3c 40 3c c2 3d b3 7c c6 3c
       -0.027179988 0.020882666 0.09484148 0.024229383
0002f0 80 7d 40 3e a9 06 e0 3d ff 14 f0 bb 0a ea 34 3e
       0.18797874 0.1093877 -0.0073267217 0.17667404
000300 0d 5f 8f bd 69 20 1d 3d 4d 1c 14 3e 2d 52 49 3e
       -0.070005514 0.038360987 0.14463921 0.19660254
000310 b7 ef 40 be 9f b2 52 bd 29 96 41 be c8 6b 9f 3d
       -0.18841444 -0.051439878 -0.18904938 0.077842295
000320 44 a2 36 be 91 4d 81 bc 1e 8d 6a be bd eb b5 bd
       -0.17835337 -0.015784057 -0.22905394 -0.08882854
000330 59 ee a9 3e 1a 32 34 3e 0b f3 21 bd 7b 17 69 3e
       0.33189657 0.17597237 -0.039538424 0.22762863
000340 07 54 55 be 87 9d af 3c f4 ef da 3d 24 2e f6 bd
       -0.20832835 0.02143742 0.10690299 -0.120205194
000350 1a a3 f1 3d bd 2a 25 be ec 46 57 be a0 b8 08 be
       0.11798687 -0.16129585 -0.21023148 -0.13351679
000360 1d dd 48 3e c0 d6 15 be 03 d4 81 bd 5e 83 fa 3d
       0.19615598 -0.14632702 -0.06339266 0.122320876
000370 d2 ae dc 3c 38 dd 04 3e 15 e5 58 be d4 3f 00 bf
       0.02693883 0.12975013 -0.21181138 -0.50097394
000380 a2 48 b6 be 60 e1 03 3d 7b de 82 3d 1c f9 6b 3d
       -0.3560229 0.032197356 0.06390091 0.057610616
000390 d6 b1 7b be ae e3 7f 3d b8 8a 45 3d 4c ad 40 3d
       -0.24579558 0.06247299 0.048227996 0.04704027
0003a0 aa 91 22 be 3f 6f 60 bd 04 92 c8 bc 4f 05 2d bd
       -0.15875879 -0.054793593 -0.024483688 -0.04224139
0003b0 9d 55 2c bd 8a 39 09 3d f7 c9 ab bc 3b ee e0 3d
       -0.042073835 0.03350214 -0.020970328 0.10982939
0003c0 04 5d fa bd dc a1 24 3e 2e fe 7e bd 7a 10 fe bd
       -0.122247726 0.1607737 -0.062254123 -0.124054864
0003d0 68 49 af bb 5b ec 18 be ae a0 09 be 84 a2 64 bd
       -0.005349327 -0.14933912 -0.134402 -0.05581905
0003e0 ea 99 62 3d 21 a9 ff 3d 1c c0 48 be c5 7a c8 3d
       0.055322565 0.12483431 -0.19604534 0.097890414
0003f0 be 82 a8 3d f4 7f 20 be ce de cf bc da 36 22 be
       0.08228062 -0.1567381 -0.025374796 -0.15841237

65 f4 [32]
000000 1a 69 6c 3f dc af 40 3e c2 bf 00 3f 73 f6 5a 3f
       0.9234787 0.18817085 0.502926 0.855323
000010 50 aa be 3a 2e 9d db be 16 21 fd 3e 78 1f a1 bf
       0.0014546607 -0.42893356 0.49439305 -1.2587729
000020 4e bc 06 3f 5c 35 96 3f b0 b2 fe 3e f4 2d 68 3f
       0.5263108 1.1735034 0.49745703 0.9069512
000030 50 e1 1d 3f 41 e1 28 3f 09 4f 73 3f fc 5b 1b 3d
       0.61671925 0.6596871 0.95042473 0.03792952
000040 eb cf 38 be 3a db 0c bf a9 a9 a9 3e 6e 93 df bd
       -0.18048064 -0.55022013 0.33137253 -0.10916792
000050 9c cb 21 be 20 de 48 3f ce e3 04 3f 93 d8 1c 3f
       -0.15800327 0.78463936 0.519101 0.61267966
000060 da bd 2f 3f 86 21 01 3f 63 da 3a 3f 37 a4 17 be
       0.68649065 0.5044178 0.7298948 -0.14808737
000070 e1 49 64 3e 69 8b 69 3f 12 ac fd 3e 4e e5 81 bd
       0.22293808 0.9122835 0.49545342 -0.063425645

67 f4 [64, 32, 3]
000000 31 69 23 be 6e 66 b9 3d 51 c2 e0 bc e2 66 c4 3d
       -0.15958096 0.0905274 -0.027436407 0.09589936
000010 f2 ca 02 3e c5 eb 12 3e ad f4 90 bd 30 7f e0 bd
       0.1277273 0.14347751 -0.07077918 -0.10961759
000020 c7 87 92 bd 87 3a 04 3d cd 48 5f 3c 3d 2c c7 bd
       -0.07154804 0.03228238 0.013628197 -0.09725235
000030 f6 ec 36 bd 6d 57 d1 3d ae ee ac 3d e7 de 71 bd
       -0.044659577 0.10221753 0.08443962 -0.059050467
000040 d9 11 5f bc a1 99 f5 ba 02 05 15 be 7f ae 53 bd
       -0.013615095 -0.0018737802 -0.14552692 -0.051680084
000050 db 9f 86 3b a4 32 05 3e 89 1b 00 3d 6b f4 17 3e
       0.0041084117 0.13007599 0.03127626 0.14839332
000060 d6 f9 4a be 4b 7a 54 bc 24 6e d3 bd a1 b2 3d 3d
       -0.19821867 -0.01296861 -0.10323742 0.046312932
000070 24 15 38 be f2 4c 10 bd 89 c4 97 bb eb 5f a5 bd
       -0.17976815 -0.03522963 -0.004631583 -0.080749355
000080 8c 52 84 bc 99 45 78 be 44 cf 60 bd ff e6 19 be
       -0.016152643 -0.242453 -0.054885164 -0.15029524
000090 53 b0 7f 3d bb 5f 2c bd ae 20 ca 3c 0c 79 fb bc
       0.062424015 -0.042083483 0.024673786 -0.030697368
0000a0 29 1e 99 bd a8 a7 02 be a9 e8 99 3d 81 ff 05 be
       -0.07476456 -0.12759268 0.075150795 -0.13085748
0000b0 3e 44 25 3e fb c6 6a 3e 7b c9 3f bb d7 0a ad 3d
       0.16139314 0.22927468 -0.0029264379 0.08449333
0000c0 61 34 9c 3d b7 53 4c b9 c6 a7 c6 3d 1a be fa bd
       0.07627178 -0.00019486142 0.09699969 -0.1224329
0000d0 60 d4 d6 3b 67 3c 25 3e 94 ae e6 3d 2c f8 1e be
       0.006556079 0.16136323 0.11263767 -0.15524358
0000e0 29 eb a2 bd 47 3c ba bd 9a 51 8c 3d 43 f4 0f 3e
       -0.079550095 -0.09093528 0.06851502 0.14058022
0000f0 9d a2 27 bd 0d d1 e5 bc aa 6a 87 3c ff 6c 3c 3c
       -0.040926564 -0.028053785 0.016530354 0.011500596
000100 3f 61 31 3e 87 66 f4 bd 4c 0d e3 bd 92 85 91 bd
       0.17322253 -0.11933618 -0.110865206 -0.07105555
000110 5e a1 1e be ff f7 17 bd 39 70 c5 bd 93 75 0e 3e
       -0.15491244 -0.037101742 -0.096405454 0.13912039
000120 f0 df 7f be 03 5d de 3d c7 f9 d1 bc 1e 1c d6 bd
       -0.24987769 0.10857584 -0.025631798 -0.10454582
000130 13 02 1f be 05 46 20 3c 9b a9 1a 3e 16 54 9e bb
       -0.15528135 0.009782319 0.15103762 -0.004831801
000140 38 09 1c 3e 1b 1c 51 3e b3 20 04 3e d7 82 c2 3d
       0.15237892 0.20420878 0.12903099 0.09497612
000150 51 68 07 3e c8 4f 32 3e 11 98 2e 3d bd 89 50 3d
       0.13223387 0.17413247 0.04262549 0.050912607
000160 69 ed 36 bc 5b f1 5e 3c 8e e7 22 3e 9b c6 5f bd
       -0.011165001 0.013607348 0.15908644 -0.054632764
000170 b3 d3 09 bd 44 0b 11 3e 60 77 10 be 74 37 22 3d
       -0.033649158 0.14164454 -0.14108038 0.039603665
000180 f7 17 0f 3e 55 2e b4 bd 15 24 4d 3d 7e bd bd bd
       0.13973986 -0.087979 0.05008324 -0.092646584
000190 62 2b e7 3d d7 c9 98 3d 4f 1d 1f 37 2e 72 1a be
       0.112875715 0.07460373 9.4839625e-06 -0.15082619
0001a0 88 bd 02 3e 1b 53 09 bd 17 43 90 3d 81 f5 17 bd
       0.12767613 -0.03352652 0.07044046 -0.037099365
0001b0 e2 09 cf bd ff 0f 25 3d 40 83 b6 bc 35 50 b6 bd
       -0.10109307 0.04029846 -0.022279382 -0.08902017
0001c0 25 8c 10 be 3d 6f 20 bd 14 83 ad bd cd 85 e2 bd
       -0.14115961 -0.039168585 -0.08472267 -0.11060677
0001d0 2b 6f e5 3d 6a 10 a5 3d 2b c6 14 3d 2b 6a cf bc
       0.11202844 0.08059771 0.0363218 -0.02531918
0001e0 54 87 c7 bc 99 c1 e7 bd 3d eb 85 3d 3b 3a c3 3d
       -0.024356522 -0.11316223 0.06539009 0.09532591
0001f0 66 b0 ad bb c9 43 0d 3d 1e 63 34 be 0f ac 45 3d
       -0.0053005693 0.034488473 -0.17615935 0.04825979
000200 26 98 d2 bc 4d 79 11 bd 4e 42 99 be cd 1b 43 3d
       -0.025707316 -0.035516072 -0.299334 0.047633935
000210 b9 ec 28 be f4 8f e9 3d 77 52 bb 3d ce cb f3 bd
       -0.16496553 0.1140441 0.09146588 -0.11904107
000220 31 be cb 3d 80 aa d8 bc 2f 8a 21 be d2 1b d1 3d
       0.099483855 -0.026448488 -0.15775369 0.102103844
000230 61 09 89 3d a4 39 81 3c 18 24 a5 bd 1b 1e 84 3d
       0.06691242 0.015774556 -0.08063525 0.06451055
000240 e5 e9 90 be 36 9d bf ba 0a ae 4b 3e 07 01 a0 bd
       -0.28303447 -0.0014618996 0.1989061 -0.07812696
000250 72 e2 92 bb bd 82 ce bd bd 6d e5 bd e7 9e 95 bb
       -0.004482561 -0.1008353 -0.112025715 -0.004566062
000260 4b 7d 38 bc 04 0b 00 be 81 61 ae bd 63 7f c9 3a
       -0.011260341 -0.12504202 -0.08514691 0.0015373047
000270 1b 8b 09 bd ca 6a d1 3c 83 51 be bd 62 c2 05 be
       -0.033579927 0.025563616 -0.09292891 -0.13062432
000280 28 63 5f bd 13 df a6 3d 16 86 81 3d 39 ab f4 3d
       -0.054537922 0.08148017 0.06324403 0.11946721
000290 cc 12 f3 bd cd d5 f3 bd f2 33 44 be 51 54 3e 3e
       -0.118688196 -0.11906014 -0.1916044 0.18586852
0002a0 9b 7e d1 bc 33 e1 d9 bc f2 33 26 be 98 3b 69 3d
       -0.025573066 -0.026596641 -0.16230753 0.0569416
0002b0 c3 8e a0 bd 83 05 04 3e ed 31 84 3c 05 c8 42 be
       -0.0783973 0.12892728 0.016137088 -0.19021614
0002c0 c2 fe b9 bd 16 5e 57 3d 92 83 39 3d ab 0e b0 3c
       -0.09081794 0.05257996 0.04529149 0.02149137
0002d0 19 b4 bc bd 64 6a 01 3d 95 09 e8 ba 97 ce 9d 3d
       -0.092140384 0.031595603 -0.0017703051 0.077054195
0002e0 88 e8 62 3c a2 f0 54 bd 98 4d 03 3c 51 bc 21 bd
       0.013849385 -0.051987298 0.008014105 -0.039486233
0002f0 68 f8 be 3d 33 24 8e bd f5 f3 35 bc b6 4b e2 bd
       0.093247235 -0.06940498 -0.011105527 -0.11049597
000300 ec 29 af bd 8d 23 62 3e 7b 51 8c 3d c6 27 9c 3d
       -0.08552918 0.22083874 0.06851479 0.07624774
000310 ee fd a1 bd fe f8 58 bc a6 a6 52 be 20 b3 20 be
       -0.07909761 -0.013242958 -0.20571384 -0.15693331
000320 bf 5a 3c bd ab 4c 41 bd 7f 6c 09 be 46 5f 9b 3d
       -0.04598498 -0.047192257 -0.13420294 0.07586531
000330 21 80 af bc be c4 30 3e a5 86 ce bc 5b e2 c3 3d
       -0.021423401 0.17262551 -0.025210688 0.09564658
000340 2e f2 73 3d 13 0c 82 3d 8d 79 35 be f0 18 16 3d
       0.059557132 0.06349959 -0.17722149 0.036644876
000350 23 0b a3 3d 71 01 79 3c 4b 63 ca 3c 4b 88 26 3e
       0.079611085 0.015198098 0.02470555 0.16262929
000360 19 bc af 3d bb 06 7f 3d 1a 01 b0 3d 1b 22 b7 3c
       0.08580799 0.062262278 0.0859396 0.02235513
000370 be 6b 29 3e 4d fb ac 3d 85 7f 5a be ad 4a e7 3b
       0.16545007 0.08446369 -0.21337707 0.0070584626
000380 56 46 f6 bd 5d a2 69 be eb a2 a2 be 80 df a8 bd
       -0.12025134 -0.22815843 -0.31764922 -0.08245754
000390 4b f1 b8 3d b8 6c 8c 3e 8d 09 df 3d c3 46 c7 bc
       0.09030398 0.27426696 0.108904935 -0.024325734
0003a0 af a6 d4 bc b9 6c 01 3e a8 77 14 be e0 a2 2c bd
       -0.025958387 0.1263913 -0.1449877 -0.042147517
0003b0 08 b6 ff bd ae 22 f3 bd a3 f7 cb bd b4 0e b5 3d
       -0.124858916 -0.11871849 -0.09959342 0.08840695
0003c0 3a d3 0e 3d 03 44 3b 3d 38 8e 8c bd a6 0e 31 be
       0.03486941 0.045719158 -0.068630636 -0.17290744
0003d0 da f3 32 bd 8c 9c 55 bd 70 41 dd bd 40 75 bc bd
       -0.043689586 -0.052151248 -0.10803497 -0.09202051
0003e0 a4 ad 08 3c af 9e 5b 3e 6e e9 e5 3d e3 0a 07 bd
       0.00834218 0.21447252 0.11226164 -0.032969367
0003f0 c0 8c 1b 3d 4a f3 41 bd b1 64 14 3e d8 7a e5 bb
       0.037976027 -0.04735116 0.14491536 -0.0070031695

68 f4 [64]
000000 e5 9d 5d be a1 78 82 3f 1f 9f 05 bf 4f 39 62 bf
       -0.21642263 1.0193063 -0.52195925 -0.88368696
000010 4f aa dd 3e 1a 8a a0 3e c5 41 a0 3f fb ca 00 bf
       0.43293998 0.31355363 1.2520071 -0.50309724
000020 65 b3 89 3f ce bd ae 3f 6e da 01 3e 8d 36 a9 3e
       1.0757872 1.3651674 0.1268098 0.3304943
000030 c1 83 5b bf 82 9d 43 3f b8 ef f5 3d 28 56 a7 bd
       -0.85747916 0.7641221 0.12008613 -0.0817073
000040 46 b7 84 3f 5c d6 35 3f 60 85 61 bf a8 04 2f bf
       1.0368431 0.7103021 -0.8809414 -0.6836648
000050 ae 37 2c bf 36 60 88 3f 48 2a b6 bf ff fc d4 3f
       -0.6727246 1.0654361 -1.4231653 1.6639708
000060 ad b9 86 3d 80 f6 0c c0 b3 c3 98 3e af 51 40 3f
       0.065783836 -2.2025452 0.29836807 0.7512464
000070 40 28 03 3e b8 75 a3 3e 0f ea 2b 3f 88 16 fe 3e
       0.12808323 0.3192575 0.6715402 0.49626565
000080 f7 c8 5e 3f e7 73 79 3f 3e 4b a1 bf 76 53 0c 40
       0.870254 0.9744248 -1.2601087 2.192594
000090 d9 2c 1e 3e 72 47 a0 bf 3c ff 08 be 67 59 b0 be
       0.15446796 -1.2521803 -0.13378614 -0.3444321
0000a0 28 c8 58 3f 32 78 c0 3e b3 5e 16 3f f0 4b 89 3d
       0.84680414 0.37591702 0.5873825 0.06703937
0000b0 c0 84 f7 3e b3 6a bd 3f 31 38 99 3e eb 36 e7 be
       0.48343468 1.4798187 0.29925683 -0.45159087
0000c0 37 f0 d0 bf ff 84 82 3f 3f fd a0 3f f6 16 5b 3f
       -1.6323308 1.0196837 1.2577285 0.8558191
0000d0 b3 fd 53 bf 94 c8 65 bf 02 27 8f 3e 23 50 08 3f
       -0.8280899 -0.8975918 0.27959448 0.5324728
0000e0 96 30 8b 3f d6 26 25 40 f7 9a 16 c0 0e 10 29 3f
       1.0874202 2.5804954 -2.3532083 0.6604012
0000f0 52 00 b9 bd 8d d6 ca 3e 46 de 0e 3f c7 74 cb 3e
       -0.09033264 0.39616814 0.5580791 0.39737532

70 f4 [64, 64, 3]
000000 b6 61 a5 bd 35 cf f1 3c eb b5 93 3d 3d 9a 0a bc
       -0.080752775 0.02951775 0.072124325 -0.008459625
000010 5f 5c 67 3b 1e ed 03 be da fa 85 3b b3 37 eb bb
       0.003530286 -0.12883422 0.0040887417 -0.0071782707
000020 0c f1 d4 3d 2f 6a 2b bd f0 0f cc bd 16 1f 0d be
       0.103975385 -0.04184931 -0.09963977 -0.1378139
000030 d7 44 13 be dc 1b a0 bd b5 00 5f 3d b8 2d fa bb
       -0.14381729 -0.07817814 0.054444034 -0.0076348446
000040 b4 e0 89 3c 97 ca a3 3d 76 98 98 3d 1a 80 24 3d
       0.01683078 0.07997625 0.074509546 0.04016123
000050 0b 69 a8 bd 93 6c a0 bd 50 fe 12 3d 0d 4c 9b 3d
       -0.0822316 -0.07833209 0.035887063 0.07582865
000060 ad fe de 3d 75 b5 2b 3d 36 34 d6 bd 9a a2 53 3e
       0.10888419 0.041921098 -0.10459177 0.20667496
000070 bd a1 99 3d 2c 05 b4 3d 4b 81 4f 3d a7 51 18 be
       0.07501552 0.08790049 0.050660413 -0.14874898
000080 b8 48 39 be 6c e5 86 bd b8 89 e7 bd b8 26 87 bd
       -0.18094146 -0.065867275 -0.11305565 -0.06599182
000090 e3 2a 04 3e d8 d3 df 3b 1c 5c 0f bd cd 33 2d 3d
       0.12906985 0.0068306737 -0.03499995 0.04228573
0000a0 e0 0d c8 bd 12 0a 47 3d 2a d9 65 3d da ce 98 3b
       -0.097682714 0.04859359 0.056115307 0.0046633305
0000b0 aa f2 6b 3d 89 fe 45 bc 86 d2 e4 3d 25 80 09 3e
       0.05760447 -0.012084612 0.11172967 0.1342779
0000c0 d9 a2 3e 3d c0 4d f7 bc 13 ae 8b 3d 4c 05 5c be
       0.046542022 -0.030188441 0.068203114 -0.21486396
0000d0 0d 03 63 bc 0a f5 dc bc 75 cb aa bd d1 5d 4f be
       -0.013855708 -0.026972312 -0.083395876 -0.20250632
0000e0 70 b3 42 bd e8 e5 dd 3c c3 e7 81 bd d2 18 57 bd
       -0.047534406 0.027087167 -0.06343033 -0.052513905
0000f0 7d 43 49 3d 9c a3 6d bd 52 22 2a 3e 8f 8f cd bd
       0.049136627 -0.05801736 0.16614655 -0.10037147
000100 31 8e ce 3d 60 28 64 3d 88 c6 41 3d 91 9d 0b bd
       0.100857146 0.055702567 0.047308475 -0.034085814
000110 99 6f 17 3e c1 dd 7d 3d 21 1a c8 3d d3 0e 47 3d
       0.14788665 0.06197906 0.09770609 0.04859812
000120 75 0e c0 3c 73 f6 4a bd b7 31 54 be 0f ef 01 bd
       0.023444394 -0.04955144 -0.2072209 -0.031722125
000130 c1 4b 70 3d 33 da 82 3d 2c 2a 4b bd f7 65 84 3b
       0.058665995 0.063892744 -0.049600765 0.0040404755
000140 60 5a 28 3d e2 80 a7 bd 4b 86 8b bd cb b3 a5 3d
       0.041101813 -0.08178879 -0.06812724 0.080909334
000150 8d 10 13 3d cd b5 5f bd c7 6d a0 bd 25 aa 0a bd
       0.035904456 -0.054616738 -0.07833438 -0.03385367
000160 2a e8 a4 3d 4e 6a 09 be be 75 09 3e b2 8e 1e bd
       0.08052094 -0.13419458 0.13423821 -0.038710304
000170 8e e8 ec bd 6a 49 28 bd 65 f7 5e 3e ff c4 70 3d
       -0.11567794 -0.041085638 0.21774061 0.05878162
000180 1a 09 df bd f4 f6 50 bc 4f bb 5c 3e b8 7a ab 3d
       -0.10890408 -0.012754191 0.21555828 0.08373016
000190 48 5d 16 3e d5 e8 c3 ba 42 d6 1f 3e 90 4b 86 be
       0.14684021 -0.0014946709 0.15609077 -0.26229525
0001a0 2c 7c 53 be 79 e6 c0 bd 11 35 f3 3c ef 99 9b 3c
       -0.20652837 -0.09418959 0.02968839 0.0189943
0001b0 cb 37 32 3e 5a f6 6e 3b 78 28 30 3e 8c df 00 3e
       0.17404096 0.0036462755 0.17202938 0.12585276
0001c0 3a fe 10 bd 7e e6 1a 3e ea 19 a1 bc 5e 92 9f 3d
       -0.0353987 0.15126988 -0.019665677 0.07791589
0001d0 88 1a ad bb a8 34 0d 3d c8 9b f6 3d cf 2e a2 3d
       -0.005282704 0.034474045 0.12041432 0.07919084
0001e0 54 4f a7 bd 6e 3f a6 3d 07 39 36 bd b1 f6 aa 3c
       -0.081694275 0.08117567 -0.04448798 0.020869585
0001f0 d6 3b 7c bd 9b d4 0b 3c 93 69 bd 3a d9 02 99 bd
       -0.0615805 0.008534576 0.0014451019 -0.07471246
000200 5a 5f 82 bd ec 8c b0 bd 30 41 37 3e 45 df 0e 3e
       -0.06365843 -0.08620629 0.17895961 0.13952358
000210 2f 9a 06 be 6a 97 75 3d 77 ac 6b 3e ba d0 79 bd
       -0.13144754 0.059958853 0.23015009 -0.060990073
000220 d4 c0 89 3d d8 f0 a4 3d 5d 5e 14 3e e7 21 2b bd
       0.06726232 0.0805375 0.14489122 -0.04178038
000230 54 84 31 be 73 c1 02 3d a6 7c 37 3d ce fd 8a 3c
       -0.17335635 0.03192277 0.04479661 0.016966727
000240 fc 78 0e bd 3b ce 04 be ae be 30 be ab 79 c8 bc
       -0.03478335 -0.12969296 -0.17260239 -0.024472078
000250 0d 90 15 be 65 98 fe 3c 3a 17 ec bd 5f 46 48 be
       -0.14605732 0.031078527 -0.115278676 -0.19558094
000260 cb bb 0a 3b 1f f0 a7 3b bd 64 40 3d 15 32 5a bd
       0.0021169062 0.00512506 0.04697107 -0.05327042
000270 f6 51 14 be 97 08 9d bd ed 85 ad bc f0 72 2e 3e
       -0.1448439 -0.07667654 -0.021182025 0.17036033
000280 6c 96 db 3d 46 16 af 3d 5b 9e b1 bd 8e 5f 2a bd
       0.1072205 0.0854917 -0.08672782 -0.041595034
000290 d2 5e 88 bd ba 41 f5 3d 0f e7 61 bd 41 d4 82 bd
       -0.066587105 0.11975427 -0.055151995 -0.063881405
0002a0 ab 6f 77 3d dd 5b e4 3d be 82 68 3d 30 09 78 bc
       0.06040923 0.11150334 0.05676531 -0.015138909
0002b0 41 f5 b6 3d 2d f8 3c bd 00 d5 19 be 98 f1 7b bd
       0.08933497 -0.046135116 -0.1502266 -0.0615097
0002c0 e1 da 23 3d 17 b7 6e bd 25 21 ee bd 6e b3 04 be
       0.04000366 -0.058280077 -0.116274156 -0.12959072
0002d0 11 26 db bd 38 9d d0 bd a2 cc ef 3c 84 e4 66 be
       -0.1070062 -0.10186237 0.029272381 -0.2254811
0002e0 d9 cf cb bd b9 3b 5b 3d 30 bb a9 3d c1 44 14 bd
       -0.09951753 0.053523753 0.08287656 -0.03619838
0002f0 94 97 ba bd ca 66 33 be b1 90 fe bd 50 f4 8b bd
       -0.091109425 -0.1751968 -0.124299414 -0.06833708
000300 e7 6b 21 3d e4 46 bd bd f3 b4 10 bd df 07 0d 3e
       0.039409544 -0.09242037 -0.035328817 0.13772534
000310 02 84 12 bd 55 5c c9 3a d7 b9 18 3d 1f 76 fc bd
       -0.035770424 0.00153626 0.037286606 -0.12327217
000320 67 c9 66 bd 00 b4 1a bd 74 a6 84 3d bc 2b fd bc
       -0.056344416 -0.037769318 0.06477061 -0.030904643
000330 d5 d4 0e bd 8e c2 3a be 43 fe 91 bd d0 2b dd bd
       -0.03487094 -0.18238279 -0.07128575 -0.10799372
000340 0f cc 3f 3c 5f 49 71 bd 81 02 82 bd 0c f4 a0 3d
       0.011706366 -0.058907863 -0.06348134 0.07859048
000350 dd e8 14 be 91 73 b0 3c 50 db 13 bc ca b2 a1 3b
       -0.14541955 0.021539481 -0.009024456 0.0049346434
000360 4f fe 30 3d 55 cc 80 3d 3d de fe 3c 04 b3 86 bc
       0.043211278 0.06288973 0.03111183 -0.016442783
000370 1c 5e 15 be 67 43 d1 3b 04 5c ec 3d fe ed 8c bd
       -0.14586681 0.006386209 0.11540988 -0.06881331
000380 95 c0 28 3e 3c 55 ff bd 9c c2 46 be 28 f1 96 bc
       0.16479714 -0.12467429 -0.19410175 -0.01842554
000390 4a 70 00 3d c2 4d a6 3d f7 f4 26 3d a7 f1 c1 bd
       0.031357087 0.081203 0.04076096 -0.0946992
0003a0 ea de ae bd 0e 7e 27 bd a2 12 83 bc 73 f2 46 3c
       -0.08538611 -0.0408917 -0.016000096 0.012142765
0003b0 96 08 11 3e 90 b4 ea 3c 51 4f e8 3b 14 89 f6 3c
       0.14163432 0.028650552 0.0070895334 0.03009466
0003c0 92 d1 00 3e 8a 78 fa bd e4 d3 fe bc 7d e1 64 3d
       0.12579945 -0.12230022 -0.031106897 0.055879105
0003d0 a2 1c a2 3d 5a 62 fc bd 41 b9 6b 3c 46 9e 06 be
       0.079156175 -0.123234466 0.01438743 -0.13146314
0003e0 e6 db 50 bd b0 d1 05 3e 6e 4b 0f 3d fd c9 29 3d
       -0.05099096 0.1306827 0.034984045 0.041452397
0003f0 55 4a 0d 3e 29 d7 d1 bd 70 ec 0e be 95 bf 8b bd
       0.13797887 -0.10246117 -0.13957381 -0.06823651

71 f4 [64]
000000 cc ac 88 3e 9c aa cd 3e f6 f0 57 be 16 38 8f bf
       0.26694334 0.40169227 -0.21088013 -1.1188991
000010 48 d8 e9 3e 94 ce df 3d a2 ca 0b be d6 7c e7 3e
       0.45672822 0.109280735 -0.13651517 0.4521243
000020 c6 7f 2b 3f d8 7e 54 3e 3d 06 ba 3f 30 2a bc bc
       0.6699184 0.20751512 1.4533154 -0.022969335
000030 5c c7 ea 3e 8c d2 37 3f b0 a1 64 3f 82 c2 77 3f
       0.45855224 0.71805644 0.89309216 0.9678117
000040 8b d3 ab 3d d7 52 3b 3f 49 b2 f4 be 54 ed 83 3f
       0.08389958 0.7317328 -0.4779227 1.0306802
000050 ea 87 34 bf e8 1a f8 3c 28 8a 7d 3f bb f7 90 3f
       -0.7051989 0.030286267 0.99038935 1.1325601
000060 bc 34 bb be 82 48 28 bf 0d 47 9e 3d 00 fa 0f b9
       -0.3656367 -0.6573564 0.077283956 -0.00013730675
000070 9a c7 1b 3f a7 00 10 40 fa fc f6 bd f2 a5 8f 3f
       0.6085144 2.2500398 -0.1205997 1.1222517
000080 06 b0 e1 3f 4e cc e6 3e 4c a6 b3 3e a0 4e 90 3f
       1.7631843 0.45077747 0.35087812 1.1273994
000090 1b af 1b 3f 7a fe 9e 3e 62 67 08 3d 1c 9c 93 3e
       0.60814065 0.31053525 0.03330172 0.2883004
0000a0 68 74 b9 3e bb 75 50 3e f4 d2 2a bf d2 7e 8e be
       0.36221623 0.2035741 -0.6672814 -0.2783113
0000b0 db 43 15 bf 07 27 bd 3f 78 25 7e 3f fb 3d 9a 3e
       -0.58306664 1.4777535 0.9927592 0.30125412
0000c0 9d ef 9e bd cc 9c 7c 3e ec 89 6d 3f 85 47 33 bf
       -0.07760546 0.24669188 0.9278858 -0.70031005
0000d0 96 73 aa 3f 56 eb 16 bf ec 13 b2 3e 1b ad 02 3f
       1.3316524 -0.58952844 0.34780824 0.5104539
0000e0 84 0e 64 3e 68 3c e9 3e 62 70 86 bf b0 7a 1d 3f
       0.22271162 0.455539 -1.0503047 0.6151533
0000f0 e8 65 17 3d 65 6d 47 3f 14 26 13 be 52 c9 df 3e
       0.03696242 0.779013 -0.14369994 0.43708283

73 f4 [64, 64, 3]
000000 38 59 a3 3d f7 d1 3c be 1b 6d 7d bd bf a0 2a bd
       0.079760015 -0.1843947 -0.06187163 -0.041657206
000010 24 dc 25 bd 8b 53 91 bd 39 84 08 3d 24 06 9e bc
       -0.040493146 -0.07096013 0.033329222 -0.019290037
000020 d5 72 98 3d 91 18 f4 3c 89 63 df bd 79 76 90 3c
       0.074437775 0.02979687 -0.10907657 0.017634617
000030 18 58 47 be 8e c5 45 be aa 38 ac bc 83 e3 0e 3e
       -0.19467199 -0.19313642 -0.021023113 0.13953976
000040 f7 3a ae 3c 6d 8c 56 3e fe 59 8b 3d ec 45 3a bb
       0.021268351 0.20952006 0.06804274 -0.0028423024
000050 46 f3 68 bd ca 0f 71 3d 10 09 40 be 8f 02 63 bd
       -0.05687263 0.05885295 -0.18753457 -0.055422362
000060 e9 a6 db 3d 3b de de bd 30 2c 1d be cd 1b f5 bc
       0.10725195 -0.10882231 -0.15348887 -0.029920483
000070 9e 44 f9 bd 28 a5 88 3e 44 2b 18 3e 96 5a 6e 3d
       -0.12171291 0.26688504 0.14860255 0.05819186
000080 f5 20 73 3e f8 fb bd bb 27 76 81 bd 1a e3 98 3d
       0.23743041 -0.0057978593 -0.06321364 0.07465191
000090 2a 10 f9 3d b3 84 0d 3b 49 37 4a 3e 75 4a 5e bd
       0.12161286 0.0021593987 0.19747652 -0.054270227
0000a0 6a e9 80 3e 99 02 2c b6 f7 e5 3e be e5 2e 71 3d
       0.2517808 -2.563151e-06 -0.18642412 0.058882613
0000b0 fa 1d 93 bd 01 8c b4 bd 69 cd d0 bd 3b af 16 bd
       -0.07183452 -0.08815766 -0.10195429 -0.036788207
0000c0 62 5a 9d 3c 1a 87 86 3c 0d ad b5 bd 76 8f 4a 3d
       0.019208137 0.016421843 -0.088708974 0.04945322
0000d0 8b 58 63 3b 95 5c 5c bd 14 0e 93 bd 5b 4a 2d 3d
       0.0034690227 -0.05379923 -0.071804196 0.04230724
0000e0 6e 5d fd bd 97 55 6b 3e 8f 8e 80 3d 14 20 a1 3e
       -0.12371336 0.22981869 0.06277191 0.31469786
0000f0 6f 4c 1e bc 02 87 2f be 71 fb 22 be d7 a8 63 be
       -0.009661778 -0.17141345 -0.1591623 -0.22232376
000100 99 0c 07 3e bd 2e 0d bd 69 02 66 3e ab 43 08 3e
       0.131884 -0.0344684 0.22461857 0.13307063
000110 15 73 58 bc d6 f7 04 bd fa 12 24 3e 22 ab 32 3e
       -0.013211031 -0.032462917 0.16022864 0.17448094
000120 60 bc ec bd c4 53 3d bc 97 53 c9 bc e7 fe c6 bc
       -0.11559367 -0.011555616 -0.024575992 -0.024291469
000130 78 6b f7 3d 3a d8 81 bd 1e a1 82 3c e4 fd 21 be
       0.12081045 -0.0634007 0.015945967 -0.15819508
000140 61 31 9c bd 17 be 3e bd 66 34 34 3e 5d d9 c9 3d
       -0.07626606 -0.046568003 0.17598113 0.09855912
000150 f4 89 2f 3d 9e fa 25 3e 8a 3c 4c bc e6 d8 1d 3e
       0.04285617 0.16208884 -0.0124656055 0.15414771
000160 fb 6d 04 bd f0 6e 7d 3d e1 e7 50 bd 9c 17 0b be
       -0.032331448 0.061873376 -0.051002387 -0.13583225
000170 22 91 ad 3d cb a0 40 3d 29 00 0b be d3 7d 2b bb
       0.084749475 0.047028344 -0.1357428 -0.0026167526
000180 2c 5f 00 be 2c 43 08 bd 27 82 7c 3e a4 06 4b bd
       -0.12536305 -0.033267185 0.24659024 -0.04956688
000190 0b c4 8c 3e 7e a9 b6 bd 43 1e 80 3c 66 1c 46 3e
       0.2749332 -0.08919047 0.01563943 0.1934677
0001a0 f6 1d eb 3d 20 27 6b bd c1 1f 1a 3e 8b 1a d0 bb
       0.11480324 -0.05741036 0.15051176 -0.0063508204
0001b0 62 83 34 3c 36 6e 64 be 6f 9d 63 3c 20 5e af bc
       0.011017652 -0.22307667 0.013892516 -0.021407187
0001c0 e0 fc 03 be 1b 9f 60 bc d1 89 33 3d f4 8e e9 bd
       -0.12889433 -0.013709809 0.043832604 -0.11404219
0001d0 cc 26 84 bc 2b 9d 47 be 1f 97 35 3d a2 0e 26 3e
       -0.016131781 -0.19493549 0.044333573 0.1621652
0001e0 47 bd 50 3d 62 3a 38 be ba 57 3c bc 7c b4 34 be
       0.05096176 -0.17991021 -0.011495525 -0.17646974
0001f0 ca 36 68 3d dc ee 9c 3d 89 e0 0b 3e c2 0b d8 3d
       0.056692876 0.07662746 0.13659872 0.105491176
000200 32 3f 11 bd a0 2e 3f be d7 25 8a 3d 31 c7 6d be
       -0.03546066 -0.1867013 0.067454986 -0.23220517
000210 b7 4c c3 bd f0 c1 31 3d 54 9e aa 3d bb c5 3f be
       -0.095361166 0.043397844 0.0833098 -0.18727772
000220 a6 e2 01 3e 24 d6 68 3e a8 64 63 bd 19 c8 06 be
       0.12684116 0.22737938 -0.055515915 -0.13162269
000230 4f 95 12 3d 3b 50 46 3e 85 db 55 3d 5c 42 ca bd
       0.035786923 0.19366543 0.052211303 -0.09875938
000240 73 9a 3f be 30 86 16 be 7f ae 17 3e 1b f6 ee 3c
       -0.18711261 -0.14699626 0.14812659 0.029170087
000250 a1 9d a6 3c b7 b7 e5 bc 07 84 f9 3c ca a8 b8 bd
       0.020338835 -0.028041704 0.030458463 -0.09016569
000260 71 7e 1a be 2f 57 2c bd dd 12 97 3d a1 e3 a1 3d
       -0.15087296 -0.042075332 0.07376645 0.07904745
000270 b7 f5 62 3d 61 45 e9 bb da b3 6c 3c 04 26 1c be
       0.055410113 -0.0071188663 0.014447177 -0.15248877
000280 01 2c 21 be f6 17 31 be 87 43 9a 3d 49 e8 f6 bc
       -0.15739442 -0.17294297 0.07532411 -0.03014006
000290 4e 10 86 3d df 49 1e 3e ce b3 2c 3d 6b 24 81 bd
       0.065460786 0.15457867 0.042163663 -0.06305774
0002a0 ac 17 f3 bd b7 bf f7 bd 3d d6 91 bd e7 3d 8c be
       -0.118697494 -0.120971136 -0.07120941 -0.27390978
0002b0 52 24 35 3c f8 ef a5 bd 81 66 16 3e 6a f6 d8 3d
       0.011056023 -0.08102411 0.1468754 0.10593875
0002c0 d4 33 8b 3d 47 8d 98 3e 54 5a 0e 3e 4c c0 4e 3e
       0.06796995 0.29795286 0.13901645 0.20190543
0002d0 08 c8 2b bd 72 1d 3a be 1e 8b d3 3d df 41 89 bc
       -0.04193881 -0.18175295 0.10329269 -0.016755043
0002e0 d8 37 cf 3d ea 14 bf bd 2a 83 1c 3e b6 d2 e9 3c
       0.10118073 -0.09330161 0.1528441 0.028542858
0002f0 1d 9f b6 bb 4e 87 bb 3d c6 9a 3c bd e6 6b 40 be
       -0.005573167 0.09156667 -0.04604604 -0.1879116
000300 0c e5 e9 3d 60 15 e3 3c 85 e0 32 3d 76 2c f7 bd
       0.1142064 0.027720153 0.04367115 -0.12069027
000310 fd a8 1a be 80 95 80 bd cf d6 bc bc 62 8b 0e 3d
       -0.15103526 -0.06278515 -0.023051647 0.034800895
000320 74 ad 1e 3e 2d 6f 1e bd 8b 9f 50 bd e8 48 39 bd
       0.15495855 -0.038680244 -0.050933402 -0.045235544
000330 4f c0 97 bd f4 f5 84 3a 77 d0 11 3e e6 0e dc ba
       -0.07409727 0.00101441 0.1423968 -0.0016789108
000340 2f d2 b1 3d 55 d5 8e bd 7c 62 62 3e b7 00 ea 3d
       0.086826675 -0.069742836 0.22107881 0.114259176
000350 94 81 c9 3d 49 1c 47 3e d1 ce 5a 3e 6f 3b 84 3d
       0.09839168 0.19444384 0.21367957 0.064566486
000360 ca 81 ec bd e6 ce 3f bc 94 d4 09 bd 5d a9 fc bd
       -0.11548193 -0.011707043 -0.033649996 -0.12336991
000370 04 ce 19 ba f4 44 37 bd 9b db 95 3d 93 09 0d bd
       -0.00058671855 -0.044743493 0.07317277 -0.03443296
000380 89 7e 9b 3d 67 60 c5 3b c3 33 ad 3d c3 c8 3c bd
       0.07592494 0.006023455 0.084571384 -0.0460899
000390 8a fc d5 3d 3e 66 b3 3c be 5e cd bd 0e ed 6e bd
       0.10448559 0.021899339 -0.10027836 -0.05833154
0003a0 4d 4f 38 bd 0e 97 3f bc cd 56 d0 3d c2 77 e2 3d
       -0.044997502 -0.011693729 0.10172806 0.11057998
0003b0 07 c3 56 3d 1e 23 18 3e 24 b9 c1 bd da 8b ec 3c
       0.052432086 0.14857146 -0.09459141 0.02887528
0003c0 7b 63 cc 3b e8 34 2c be 8c d9 c1 bd 79 a8 bb 3d
       0.006237445 -0.16817057 -0.09465322 0.09162993
0003d0 04 3e 09 3e e2 28 fb bc ad 3f 10 3d 79 98 94 3d
       0.13402563 -0.030659143 0.035216976 0.07255644
0003e0 7d 21 c6 3d 56 e3 64 3d 56 a6 83 3c 0b c4 20 bd
       0.09674356 0.055880867 0.016070526 -0.03924946
0003f0 e1 5e 94 3e 67 e3 2e 3e 5b 44 9a 3d 13 e5 e1 3d
       0.28978637 0.17078935 0.07532569 0.110300206

74 f4 [64]
000000 c4 6e c0 bd cd 3e 75 bf 90 1f 3f 3f 8b 08 bc be
       -0.09396127 -0.9579895 0.74657536 -0.36725268
000010 70 10 37 be b7 a2 4d bf dd b6 00 bf 27 8a 10 bf
       -0.17877364 -0.8032641 -0.5027903 -0.56460804
000020 d0 c5 42 bf 14 54 05 bd f4 3a e1 be 24 fd 88 bf
       -0.7608309 -0.032550886 -0.4399029 -1.0702252
000030 f6 80 7e 3e 0a ce e9 be d1 11 3c bf 2b 88 fa be
       0.24853882 -0.45665008 -0.73464686 -0.48932013
000040 bb 2c bb 3e 74 8c f2 be 68 8c 69 3e 6e f1 ab be
       0.36557564 -0.47372782 0.22807467 -0.33582634
000050 48 27 5b be 5a 83 10 bf 7c 2a 40 3e 20 73 72 3e
       -0.21401703 -0.56450427 0.18766207 0.23676729
000060 fe ec 01 be 97 ee c0 be 11 3c 15 bf 60 38 f2 bd
       -0.12688062 -0.3768203 -0.5829478 -0.11827159
000070 29 41 33 bf b3 31 73 bf 62 c9 b1 be 48 bd 89 be
       -0.700213 -0.9499771 -0.34723955 -0.26902223
000080 0c 27 31 bf 2c 9d f4 3e 27 84 e4 be db ce 0c bf
       -0.69200206 0.47776163 -0.44632074 -0.55003136
000090 b3 3e 25 bf 70 4d 82 bf 8c 51 78 bf d5 be 39 bf
       -0.64548796 -1.0179882 -0.9699943 -0.7255681
0000a0 79 97 8d bf 6e 86 59 be c1 74 bb be 8b cb a4 bf
       -1.1061851 -0.21242687 -0.36612514 -1.2874616
0000b0 58 66 c1 3b d0 06 37 3b d1 54 9c be 97 e0 7b bf
       0.005902093 0.0027927645 -0.3053346 -0.9838957
0000c0 b4 47 50 be 00 ad 49 3a 19 b3 13 be e5 58 3f bf
       -0.20339853 0.00076933205 -0.14423789 -0.7474502
0000d0 22 55 37 be 67 b9 cd 3e e7 60 08 3f b2 c0 09 be
       -0.1790357 0.40180513 0.5327286 -0.13452414
0000e0 18 8c 9c bd 00 c1 b4 bd d1 c3 4c bf 22 3e 31 bf
       -0.07643908 -0.08825874 -0.7998629 -0.6923543
0000f0 e1 f3 13 3f 36 ae 19 be d6 26 39 3d 2f aa 1c bf
       0.57794005 -0.15007862 0.045203052 -0.6119718
